Python/dqnAgent_Trained_Model_last.pth (torch, 89367 bytes, 6 tensors)

fc1.weight f4 [128, 37]
00000000: 4fb9 8e3d 12a6 403e 5f0f 8cbe 3163 f6be
00000010: 8cff d6bb ddab 153d b01b 99be 8bea b63e
00000020: 9cf7 4bbe 9c0c b3bd 3d1d 183e 2f1c 9ebc
00000030: 9e90 b6be 3f03 8cbe 4e6c a1be 572d 243e
00000040: 20ae d9be 269d 663e 11a1 1abe 6652 1bbe
00000050: aa57 7bbe 19dd d6bb 637a 513d 5848 b13e
00000060: 8c17 f1be 6eb8 b03e 9bae 0d3e b2fb 09bf
00000070: 3d75 49bf 509b babd 99fe d33b 2779 3b3e
00000080: b061 1dbf 76c1 70be dcf7 be3e 1820 f53c
00000090: 288d 01be 706b 9b3e 1044 113e b5fa 133e
000000a0: 54ba 24bf 3e28 143e dbae 8cbd 5557 f6bd
000000b0: 6301 85be 8ef9 a0bc b040 773d 8022 f73d
000000c0: 40fb 133c 103c 84be e156 1b3e 878a 8e3e
000000d0: b43e c53d 6f64 333e 2493 81bb 28bf 7abe
000000e0: 6d91 343d 7246 31bd 093f cebe 0f51 8fbe
000000f0: 0a37 4b3e 3532 84bc a87e ccbd 86d9 37bf
00000100: bc81 cd3e 5f83 6ebe 7806 00bf a570 3ebc
00000110: 5962 7a3e e544 943d c413 e5be 16ba dd3c
00000120: d674 8c3e 9082 abbd e37b 34bd e398 ac3e
00000130: 36aa ec3d ed83 37be f028 bf3d 2e8e eabe
00000140: 7d36 3bbe 2fa7 d73e 1def 873e 038d 15bf
00000150: 49cd 8b3e a5e3 72be 008b 3abe ede4 c6bd
00000160: 5c42 25bf a6b6 5abe 18d5 f83d cd13 5c3e
00000170: dde4 5b3e 5850 e03e 97d4 98bd 4d31 36be
00000180: 4498 033e 9ae2 083b 7a9a c33e 2c06 b2be
00000190: a0ab 9e3e 9602 5c3e 3381 97bd 2939 b3be
000001a0: 02d0 febd a73b f1bd fb76 61be 1ce3 013e
000001b0: fa12 ec3e 91e3 20bd c79d f7bc a46a 183f
000001c0: 142e 5bbe 1cb3 afbe 75bf 003e 0875 9bbf
000001d0: 10c4 86bd 90ce e13d a827 963b 9146 7b3e
000001e0: 83a6 bf3d f565 453d e1d3 91bc 55df c23d
000001f0: 2316 4bbd ff9e 2cbe 270a 863e 46a1 19be
00000200: 3a71 c4bc af40 0fbf f2ee 77bf 6d25 843e
00000210: 8cd5 ae3c b41f a03d adae 68bd fd4c d1bd
00000220: ff8d 85bb 9364 393c 2033 0f3e 5221 673e
00000230: 9641 d83d bb99 1d3d 3af1 123e fcf0 f23d
00000240: 468d 393d 6cd6 ecbd 9c8a d3bc 8161 fabb
00000250: da3b 41bf fa6d af3b b21f 3eba 819a 763d
00000260: 7a25 38be 4aea a63e 9f94 c4be 2172 87be
00000270: 783a a7be e501 13bf d994 93be cf2b 3e3d
00000280: c9bf 78be 3796 ad3e 22f8 96be f4fe 9fbc
00000290: 01e7 94bc fd36 3a3d bdba 5ebe d4cc 7a3e
000002a0: a114 52bf df06 3cbf fff8 bc3e e299 843e
000002b0: 8af4 65bd ff94 e63d b486 2b3c 58f0 aa3d
000002c0: c6f3 0fbf 54fb b6be bb20 623e fd7e b0bc
000002d0: e1ba 8ebd c06e e2be 3a35 803e 2be9 09bd
000002e0: c402 50bd 1fce f5bd 9844 02be 8f06 ca3d
000002f0: bde0 95be 835e cdbc fc58 fd3d 18e8 8a3e
00000300: 5f29 82be 1e3c c8be 0cb4 04be c562 cdbd
00000310: fb9c 3cbe 2895 733d 7134 31bd ca23 dd3e
00000320: 63cf 733b 3016 4dbe 67d6 14be cbc9 643d
00000330: a7ca 02bf 283e 7f3e e075 abbd 07d4 ffbc
00000340: c52b 8ebe d708 57be b9e0 87be 1d6a 37bc
00000350: 97ba d4bb feb8 21be 77cf 393f 4a07 b0be
00000360: 6539 95bc d83b fc3c 19f3 fb3d e9e2 593e
00000370: 3c6c 01be fbac f03c 4070 133e c552 c73d
00000380: beb2 21bd 5612 a3bd 3d95 c1be d443 9cbe
00000390: 586e 383c 13d7 583d d166 db3e 24cb 033f
000003a0: f257 b2bd cab7 d53d 7646 093e 1a9e 843e
000003b0: 9274 593e bdbd 78be 8189 df3c fbf3 bb3d
000003c0: bd3d 7e3e 6c7f eb3e 42a3 42bd 28eb 54bd
000003d0: c5cf 663d 6017 a03d ee3d 753e c3a5 54be
000003e0: e54d 663d 3a22 c23d 371f 933d ede9 ab3e
000003f0: 5f0e 093f 9fea 72bd 8aff 26be a134 1dbf
0.069689386 0.18813351 -0.27355477 -0.48122552 -0.0065612253 0.036540855 -0.29903936 0.35725817
-0.19918674 -0.087426394 0.14854904 -0.019300548 -0.3565721 -0.27346227 -0.31527942 0.16032921
-0.4251566 0.22520885 -0.15100504 -0.15168151 -0.2454516 -0.0065571186 0.051142108 0.34625506
-0.47088277 0.3451571 0.13836138 -0.5389968 -0.78694516 -0.09111655 0.0064695594 0.18307935
-0.61477184 -0.235113 0.37298477 0.02992253 -0.12651503 0.30355406 0.1418612 0.14451106
-0.64346814 0.14468476 -0.068692885 -0.12028376 -0.2597762 -0.019650247 0.060364425 0.12067127
0.009032071 -0.25827074 0.1516986 0.27840063 0.096311 0.17518781 -0.003954308 -0.24486983
0.044084 -0.043280073 -0.40282467 -0.2799153 0.19845214 -0.016137222 -0.09985095 -0.7181629
0.40138042 -0.23292302 -0.5000987 -0.011623536 0.24451579 0.07239703 -0.44741642 0.027066272
0.2743289 -0.08374512 -0.04406346 0.33710393 0.11555903 -0.1792142 0.0933398 -0.458116
-0.18282504 0.42119738 0.26549616 -0.5841829 0.27305058 -0.23719652 -0.18217087 -0.09711633
-0.6455438 -0.21358737 0.121500194 0.21491928 0.21474023 0.43811297 -0.07462423 -0.17792244
0.12851053 0.0020887018 0.38203794 -0.34770334 0.30990314 0.21485361 -0.0739769 -0.35004547
-0.12442018 -0.11778956 -0.22018044 0.12684292 0.46108228 -0.039279524 -0.030226601 0.5953772
-0.21404296 -0.34316337 0.12573035 -1.214509 -0.06580365 0.11025727 0.004582364 0.24538638
0.093579315 0.048192937 -0.017801227 0.095152535 -0.049581658 -0.16857527 0.2617962 -0.15002927
-0.023979772 -0.55958074 -0.96848977 0.25809804 0.021342061 0.07818547 -0.05680721 -0.102197625
-0.004075765 0.011315483 0.13984346 0.22571304 0.105593845 0.038476687 0.14349833 0.1186237
0.045300744 -0.11564335 -0.02582293 -0.007641018 -0.7548195 0.0053536864 -0.0007252648 0.06020594
-0.17983046 0.32600623 -0.3839464 -0.2645426 -0.32661796 -0.57424766 -0.288245 0.046428498
-0.2429191 0.33903667 -0.29486185 -0.01953075 -0.018176557 0.045462597 -0.21750923 0.24492198
-0.8206273 -0.73447984 0.3690872 0.25898653 -0.056141414 0.112588875 0.010469127 0.08346623
-0.56231344 -0.35738623 0.22082798 -0.021544928 -0.06969238 -0.4422512 0.2504061 -0.033669632
-0.050783888 -0.12002205 -0.12721479 0.09864532 -0.29273024 -0.02506948 0.12370488 0.27130198
-0.2542219 -0.39108366 -0.12959307 -0.100286044 -0.18419258 0.05946842 -0.043262903 0.43191367
0.003720247 -0.20027995 -0.14534913 0.055856507 -0.5109047 0.24926054 -0.08372092 -0.031229032
-0.27767769 -0.20999466 -0.26538637 -0.011194733 -0.00649197 -0.15793225 0.7258219 -0.3438056
-0.018215844 0.030790254 0.123022266 0.21277966 -0.12638944 0.029379359 0.14398289 0.09732584
-0.039477102 -0.07962482 -0.37809172 -0.305205 0.011256777 0.052939486 0.4285188 0.51481843
-0.087081805 0.104354456 0.13405785 0.25901872 0.21235874 -0.2429113 0.027287247 0.09177395
0.24828239 0.45995653 -0.047518976 -0.051982075 0.05635049 0.078169584 0.23949406 -0.20766358
0.05622663 0.094791844 0.07183688 0.3357691 0.53537554 -0.059305783 -0.16308418 -0.6140843

fc1.bias f4 [128]
00000000: 0a84 c8bd 409b 40bb caee 0cbd ba4f 913d
00000010: 19c7 b5bd 3dcf 7cbe 2d5d 113e f47e f43b
00000020: 5802 c03d 8b81 ce3d 8615 88bd 4ef6 b43d
00000030: fd64 803d 3b42 e43d 7963 0ebe b084 c239
00000040: 3670 28bd a31c a6bd 534a 58be 6e67 96bd
00000050: d924 3abe c79f 2f3e e3bd 2d3e 1b73 5fbc
00000060: e0db c2bb 2197 f33e 3ef8 b63d c78c 40bd
00000070: 47b3 bbbd 3e62 64be 44d6 d93d 194b 303d
00000080: 558d dcbd 991c ae3d 40c7 933d e9a1 32be
00000090: 6787 d0bc 3129 f9bb 32eb 90bc ecec 41be
000000a0: e5c6 b0bc 3dc5 8d3d 7d19 843e 97a1 a13d
000000b0: fb7f 7a3c 0d81 cabd 85ce 5a3c d74d 76be
000000c0: b1d4 56be 8746 44be 93d5 ff3d 69a6 513e
000000d0: 4774 93bb 1125 443d 346e cf3d 9e38 5e3e
000000e0: 0abc a9bd c8ab 6a3e 5fce 0f3d 7876 62be
000000f0: ee93 14be 82a0 913d 28a8 b83d 7952 66be
00000100: 3683 253c 29c6 053d 6d84 df3c 6826 e7bc
00000110: d0f8 90be fb79 e5bd e6bc 73bd 586f 98bc
00000120: 25b3 a33b 20df 4ebe f716 47be b056 45bd
00000130: e273 6b3e 3af1 b3bd 6835 be3d 780b 90bd
00000140: 600c 713c a279 943d a671 07bb eb43 a1bc
00000150: 9fe9 babc 221a 983d de7b d2bd b2a8 82be
00000160: 223b b4bd 6040 e13d 7e51 083e 8888 0abd
00000170: 6a4a 02be 53d0 16be ce2d 3dbd 9cf8 143d
00000180: 0f5f 33be c645 3dbe a80a 09bd 61b2 03be
00000190: 51cd c4bd 63d7 9bbe 099b ea3c 4ef3 c23e
000001a0: ed4d 40be 0ba8 8ebe 8259 66be 08e0 153e
000001b0: 50c7 46be e4a7 0d3e 8808 663e 5f39 a7bc
000001c0: 4fc2 95bd 51c0 b6be 8bd1 033d 4e57 663d
000001d0: ef62 513e 5f39 4c3e d9a7 2a3d b379 e9bd
000001e0: 6ca7 153d f856 1c3d bbb6 babd 06db b9bd
000001f0: 137a 04bc 4946 2abc a4ed 11bc b427 40be
-0.097908095 -0.0029389411 -0.034407414 0.07095285 -0.088758655 -0.2468843 0.141957 0.007461423
0.09375447 0.10083302 -0.0664473 0.088360414 0.06269262 0.11145445 -0.13905133 0.00037101423
-0.041122638 -0.08110931 -0.21122102 -0.073439464 -0.18178119 0.17150794 0.16966967 -0.013638283
-0.0059466213 0.4757624 0.08934067 -0.047009256 -0.09165054 -0.22303101 0.10636571 0.04304037
-0.107691444 0.08501548 0.07215738 -0.17444576 -0.02545519 -0.0076037874 -0.017690275 -0.18938035
-0.021579215 0.06922386 0.25800696 0.07892149 0.015289302 -0.09887896 0.013354902 -0.24053131
-0.20979573 -0.19167529 0.12491908 0.20473637 -0.0044999453 0.04788691 0.101284415 0.21701285
-0.08287819 0.22917092 0.03510892 -0.22115505 -0.14509556 0.071106926 0.09016448 -0.22492398
0.010102084 0.032659683 0.027284825 -0.028216556 -0.2831483 -0.112049066 -0.05950632 -0.01860778
0.004995721 -0.20202303 -0.19442354 -0.048178375 0.22993425 -0.08786245 0.0928753 -0.070334375
0.014712423 0.07249762 -0.0020667105 -0.019685706 -0.022816477 0.074268594 -0.10277532 -0.2551933
-0.08800341 0.10998607 0.13312337 -0.033821613 -0.12723699 -0.14727907 -0.04618626 0.036369905
-0.1751673 -0.18483648 -0.03345743 -0.12861015 -0.096094735 -0.30437765 0.02863838 0.38076252
-0.18779726 -0.27862582 -0.22495082 0.14636242 -0.19411969 0.13833576 0.22464192 -0.020413099
-0.07312452 -0.356936 0.032182258 0.056235604 0.20447896 0.1994376 0.04166398 -0.114001654
0.03653662 0.038168877 -0.09116884 -0.090749785 -0.008085745 -0.010392734 -0.008906756 -0.18765146

fc2.weight f4 [128, 128]
00000000: 6371 633c 5874 8ebd 75ae 3fbe ce53 45be
00000010: e0c3 9abd d4ca 253d 4b16 ddbe 6448 bdbd
00000020: 7546 b43e f07a f23d fcd2 07bd cc05 023f
00000030: 3222 8dbc 7f11 ae3c cee3 99bc 838a 3b3d
00000040: 5c0c 41bd adae 693d 6c4b 09bd cd8b 533e
00000050: 051e d53c 104e 1d3e 3f8a d23d 38c8 80bd
00000060: cfaa 133d 2b16 9e3d d0e1 193e c3c2 47be
00000070: d693 ce3d abd2 093e e5ed cc3e 9c09 563e
00000080: 885c 313d 2cbb 24bf 603d 4cbe 4f88 bdbe
00000090: df1f 2ebe 612d 2abd 5ebb f5bd f836 823d
000000a0: e864 c9bd 33e6 bfbc bf00 41be d489 d9bd
000000b0: fcd4 033d dc8d bb3d 0de2 dfbd 4d25 a8bd
000000c0: 83cb 55bd e8ea 5c3b 1604 30be 9082 19bd
000000d0: ef99 5bbe 199b 533e 7776 2cbb 4219 87be
000000e0: 0f38 06be ed6a 6cbc 570e 8cbe 88e1 093e
000000f0: a0ff d5ba bf16 d4be 3658 5dbd fc2b 32bd
00000100: 51c8 863e bcb7 25be d3d6 43be 0a98 07bd
00000110: 0487 9c3d 16ad aebd 6cdc da3c 6394 1bbe
00000120: 758b 04be ae34 323d f280 353e 4150 84be
00000130: eb59 25be 8b58 f13e 484c e8bd ec20 c83d
00000140: 3d3f 36be 0027 0abe ec8c 113e faea fe3c
00000150: d7f4 5cbe 5e99 a3bd 98d6 07be b2a9 3dbe
00000160: 85b8 f2bd 6c5c 2fbe 17ed 69be caeb 03be
00000170: ec29 9dbd 3588 e7be 01fb 6f3c 62ab da3d
00000180: 8b93 80be 7b4a 7d3e eda1 3abe 8248 04be
00000190: a93d 0cbe 64d0 efbd 6e93 fdba ee7d 6b3e
000001a0: f8e9 073e 0b23 78bd 3ea8 99bd e1bc c9bd
000001b0: 490d 15be d112 8fbe a7e0 a4be 42a5 88bd
000001c0: 81cc afbe 05dc b7bd 1d48 fabe 5fb1 4ebd
000001d0: a5de 903e bdc3 f43e 31b0 8cbe d18c 2c3e
000001e0: a2b0 6c3d d679 fcbd ce50 083e 759b f8bd
000001f0: 77fe 293e 8009 d63c dcdd 093c 82ed f83c
00000200: 6dea c9bd d08c 2cbe 4c48 0ebe e1f7 3b3e
00000210: 71c5 e3be 5051 1fbc 0ace c63e 1e61 02bf
00000220: 1418 cbbe 3d3f ba3c 0ea1 03bd 8863 abbe
00000230: b48e a5be 62b9 41be 3172 08bd d312 47be
00000240: 0dd4 2dbd 5e00 c33d acea 6fbe b8d0 9fbd
00000250: 5027 cbbd 16ee 92bf bf9c 3e3e fc77 5c3f
00000260: 4449 e3be 4056 44be de57 3abc ba37 0bbf
00000270: a6c2 7cbe 1302 843e 78c5 e5bc 19ec ae3b
00000280: 3431 8abd e7ca 1b3d 948c a23c 4139 343e
00000290: 24a4 39be af45 2d3d 201e 043e 78d5 0fbe
000002a0: 0ebe e9bc f1b2 ab3c 0979 1fbf 08fa 80be
000002b0: 81cd 13be 8708 78bb cf94 1cbd 0e72 0a39
000002c0: 22e0 51be 756c 0cbd e9bd 0d3d 4432 19bf
000002d0: 6049 ce3d c8ef 303e 25ac 62be 1558 81be
000002e0: 253d 953c 364f ccbc e7f2 d6be c3b4 afbc
000002f0: 3112 f13b 8c26 0d3e cd9e e0bd b9d4 6abe
00000300: 40ba 923b 2c52 8c3d 1f5b 2b3e 858f 5b3f
00000310: 49a5 683e 183f 2f3e 386a 6e3d 8ca2 5dbd
00000320: e1fe 933e 00db 88bd e42a f83d 8cd7 eebe
00000330: fa8d abbd d09a 173e e1e6 7cbe 9245 ed3d
00000340: 7918 7cbd 2a85 293d b92f f43b 52ae ddbd
00000350: ebdd d9be 4b3f 743e d1c0 003b 3eab 2b3e
00000360: 4b2b b9be 5d43 2abd 8be0 823d 9411 8e3e
00000370: 2b63 e1bd 8cbf 2c3e 4521 8bbe 2711 40be
00000380: dd97 78be 2aa2 6a3e e848 a83e 2166 3cbf
00000390: 1d7f a93d 28b4 2abc 1279 6e3d 4891 a8be
000003a0: 073a 403e 8b61 8bbe 6dbb f7be 15fe ddbd
000003b0: 3e9f d33c d200 fcbe 5cb9 d83d 2223 9d3e
000003c0: 1643 32be 97b4 633e 8d45 4dbe 8dfa 20be
000003d0: 4e96 813e 2468 f1be 9f58 10be 6af1 ddbd
000003e0: 3875 2b3d 6bd5 ad3e 480f 93bd 3e49 97be
000003f0: ae34 763d 8953 ba3d b231 b4be 95d9 4dbe
0.013882014 -0.069557846 -0.18718894 -0.1927025 -0.075568914 0.040476635 -0.4318107 -0.09242323
0.35210004 0.11839855 -0.033160195 0.50790095 -0.01722822 0.021248577 -0.018785384 0.045786392
-0.047130927 0.05705135 -0.033519194 0.20658799 0.026015291 0.1536181 0.102802746 -0.06288189
0.036051568 0.07719072 0.15027547 -0.1950789 0.10086791 0.1345927 0.4002525 0.20902103
0.043301135 -0.643481 -0.19945288 -0.37018058 -0.17004345 -0.041547183 -0.11998628 0.06358141
-0.098336995 -0.023425197 -0.18847941 -0.10621992 0.03218554 0.09157917 -0.10931788 -0.082102396
-0.052196037 0.003370935 -0.17189059 -0.03747803 -0.2144544 0.20664634 -0.0026315728 -0.26386458
-0.13107322 -0.01442979 -0.2735469 0.1346494 -0.0016326793 -0.41423604 -0.054039203 -0.043498978
0.26324704 -0.1618337 -0.19124918 -0.03310398 0.0764294 -0.08529107 0.026716433 -0.15193324
-0.12943824 0.04350727 0.1772497 -0.2584248 -0.16147582 0.47137865 -0.113426745 0.09771904
-0.17797561 -0.1349144 0.14213914 0.031117905 -0.21577774 -0.07988237 -0.13265455 -0.18521765
-0.118516006 -0.171251 -0.22844349 -0.12882915 -0.076740116 -0.45221105 0.014647246 0.1067722
-0.25112566 0.24735443 -0.18225832 -0.12918285 -0.13695396 -0.11709669 -0.0019346306 0.22997257
0.13272846 -0.060580295 -0.07502793 -0.09850479 -0.14555849 -0.27944043 -0.32202646 -0.066721454
-0.34335712 -0.08977512 -0.48883143 -0.050462123 0.28294864 0.47805586 -0.27478173 0.16850592
0.057785638 -0.12327926 0.13312075 -0.12139026 0.16600977 0.026127577 0.008414712 0.03038669
-0.09859166 -0.1685059 -0.13894767 0.18356277 -0.44486573 -0.009723976 0.3882907 -0.5092944
-0.39666808 0.022735232 -0.032136016 -0.33474374 -0.32335436 -0.18918374 -0.033312026 -0.19440775
-0.042438556 0.095215544 -0.23429364 -0.07803482 -0.09919608 -1.1478908 0.18614481 0.8612058
-0.44391835 -0.19173527 -0.011373488 -0.54381907 -0.24683627 0.25782833 -0.028048262 0.0053382036
-0.06747666 0.0380353 0.019842423 0.17599966 -0.18129021 0.042302784 0.12902117 -0.14046276
-0.028533008 0.02095935 -0.6229406 -0.2519076 -0.14433862 -0.003784688 -0.038227852 0.00013203194
-0.20495656 -0.03428312 0.03460494 -0.59842324 0.10072589 0.1727897 -0.2213598 -0.25262514
0.018217633 -0.024940114 -0.41982195 -0.021448499 0.007356905 0.13784236 -0.10967789 -0.2293271
0.004477769 0.068516105 0.16733979 0.8576587 0.22719301 0.17113912 0.058206767 -0.054110095
0.28905395 -0.06682396 0.12117556 -0.46648824 -0.08376689 0.1480515 -0.24697448 0.11585535
-0.061546776 0.04138676 0.007451978 -0.108242646 -0.42552122 0.2385227 0.0019646178 0.16764542
-0.36165842 -0.04156815 0.063904844 0.27747786 -0.11005243 0.16869944 -0.2717382 -0.18756543
-0.24276681 0.22913423 0.32868123 -0.73593336 0.08276198 -0.010418929 0.05822093 -0.3292334
0.18772136 -0.27222857 -0.48385182 -0.10839478 0.025832769 -0.49219376 0.105822295 0.30690867
-0.17408404 0.22236858 -0.20046063 -0.15720578 0.25309986 -0.47149765 -0.14096306 -0.10837062
0.041859835 0.33951887 -0.07180649 -0.29548067 0.060108833 0.09097964 -0.35194165 -0.20102532

fc2.bias f4 [128]
00000000: e569 cb3e f3e5 563d 4498 3ebe cd3a a53d
00000010: ab86 19be 820d a43c 9026 bdbc eb0f 98bd
00000020: 42ef dcbd 1ba7 8bbd f85a 69bd d439 d8bc
00000030: ffbd 00be 308c e0bc ce49 98bd 81ee 91bd
00000040: c2c5 2cbe 88e4 08be 8b91 21be 3b7a b5bd
00000050: 12e8 68bd ca79 13bd b131 51bd 7e6d 7fbd
00000060: f849 04be 9095 58be c1a2 24be df92 9d3d
00000070: 1d91 72bd 6851 e63d 3f84 6cbe 4942 b1bc
00000080: 704a 03bd c721 99bd 2a9c 3abd 3cf1 d7bd
00000090: 1661 94ba a834 693b 6d40 25be 7f2d 183d
000000a0: 37b3 f5bc bee9 11be fd3b f5bc 0fc4 65bd
000000b0: ac86 1cbe b8ea 3f3e f973 01be f331 333d
000000c0: f99c 473e 576e 80be 2e66 d33d 4bb4 34be
000000d0: cc4e aabd 2efc acbd 7bc7 cbbd 90a1 0b3c
000000e0: 9e6b f2bd 1ab6 083d 916b eabc 331b bdbd
000000f0: 86c5 99bd fa1e 2abd dcbe 5bbe dbbf d8bd
00000100: bf14 0f3e c66b 37be d775 c4bd 8686 97bd
00000110: 3794 043c ac10 b7bd 1bee acbc c5a8 3bbe
00000120: 378b 26be d789 5f3f 095e e8bc 55fc 313d
00000130: 7be2 b5bc c928 1dbe 26a4 46be 4a45 efbd
00000140: c338 27be dbb6 c6bd 8fab 803f f791 41be
00000150: 0b10 d7bd fb5e 43be 1065 f1bd 738b 1e3d
00000160: 2bb6 a83d 0d22 31bd 780f bc3c d93c a1bd
00000170: dd5f a5bd 70a8 183d b4a5 a83d a37a 9dbd
00000180: ea77 0fbd ba4b c2bc 75a5 a1bd d604 e9bd
00000190: cc2c 9d3d 8074 ccbd 7c84 18be be2a e7bd
000001a0: 174f 9fbd 1ec5 d5bd baf2 4d3e 23c4 7e3f
000001b0: 2426 b7bd 8926 9ebd 7d72 e4bc 3dc8 cebd
000001c0: e696 23be dce9 0a3e 6c89 8f3d 8e2d 4dbd
000001d0: 57e1 bcbd 51c6 ffbd 4245 cebb 6cdd 20bd
000001e0: c8b5 bc3e f904 8abd 4bc0 babd f8ef 5c3e
000001f0: 4479 123e 3cee 2abe 3c9d 6f3c d1d8 2dbe
0.3972923 0.05246539 -0.18612772 0.08067856 -0.14992778 0.020025972 -0.023089677 -0.07424911
-0.10787822 -0.06818982 -0.05697152 -0.026394762 -0.12572478 -0.027410597 -0.07435952 -0.07125569
-0.16872314 -0.13368428 -0.15778176 -0.08861204 -0.056861944 -0.03600482 -0.05107278 -0.06236028
-0.12918842 -0.21150804 -0.1607771 0.07694029 -0.059220422 0.11245996 -0.23097323 -0.021638053
-0.03205341 -0.07477146 -0.045559086 -0.10544059 -0.0011320438 0.0035584364 -0.16137858 0.037152763
-0.029992683 -0.14249322 -0.029935831 -0.05609518 -0.15285748 0.18741882 -0.12641896 0.043748807
0.19493474 -0.25084183 0.103222236 -0.17646901 -0.083158106 -0.08446537 -0.09950157 0.008522406
-0.118369326 0.03337679 -0.028615745 -0.092337035 -0.07508378 -0.041533448 -0.21459526 -0.105834685
0.13972758 -0.17912206 -0.09592789 -0.07398705 0.008091978 -0.08938727 -0.021109631 -0.18326099
-0.16264044 0.873197 -0.028365152 0.043453533 -0.02220272 -0.1534759 -0.19398555 -0.11683138
-0.16330247 -0.09702846 1.0052356 -0.18903337 -0.10501107 -0.19079201 -0.11786854 0.038707208
0.08237871 -0.043245364 0.022956595 -0.07872934 -0.08074925 0.03727001 0.0823473 -0.07689407
-0.03502647 -0.02371775 -0.078928865 -0.113778755 0.0767456 -0.09983158 -0.14894289 -0.11287449
-0.07778757 -0.10437988 0.20112124 0.9951803 -0.089428216 -0.07722194 -0.027886624 -0.10096786
-0.15975532 0.13565773 0.07008633 -0.050092272 -0.09222668 -0.12488998 -0.0062948773 -0.039273664
0.36857438 -0.0673923 -0.09118708 0.21575916 0.14304072 -0.16692442 0.01462489 -0.1697724

fc3.weight f4 [4, 128]
00000000: d0b9 103e e4d0 6d3e bfcc c63d 3463 f53b
00000010: 95bb f6bd d56f b43d 9de7 5a3d faa8 f1bd
00000020: 885f 623d 85ea 81bd 37ed 5e3e 03f9 d13d
00000030: a41d 17bd f4f0 b1be ede7 a93c 0e52 4e3d
00000040: 570f 063d d63e dbbc f160 f0bd 816e bbbe
00000050: 49bd 6fbd c991 7a3e d01e d53d 45fb 02be
00000060: 1aa2 263e 1c46 27bd 7ed1 90bc 37a7 c43d
00000070: c16c 273e 6c4d 6e3d c385 b3be 5ded d03d
00000080: 0a20 4b3d 4b13 8f3e 514f b93d bad9 88be
00000090: e144 d23d 3954 653d da70 ef3b 0606 753e
000000a0: 7218 233e d0bf 02be 3881 b5bd 573e a6bd
000000b0: 6e0b 893d 9142 653e 68a9 a1bc 5704 293e
000000c0: 0fe4 d73d 6829 173e ce12 1e3d e0e7 1c3d
000000d0: f645 06bd fc15 cd3d 62d9 953d 1fbe 053d
000000e0: ba91 b53e 4a7b 993d abe4 073d b5e3 f73c
000000f0: b155 f53c b0f6 293e acdc f6bc 2cbf 373d
00000100: cb81 693e 56eb debd 610e 03ba 542a 673c
00000110: 9e1e 043e 8a53 6dbe 11f1 adbc 04c3 e0be
00000120: e420 813d 170f 203e 9491 97be e6f0 a83e
00000130: fa53 89be d36f 2f3e ecf2 8ebe ddc9 91be
00000140: d1b1 853d da8c e7be 904a 1a3e 06ec fbbe
00000150: a210 4a3d 0c09 7fbe 83c9 e439 1bad 683e
00000160: 2f65 9c3d 1afe 3b3c 6af7 b33c 6b02 e9be
00000170: 53d1 173d 5355 2b3b b8a1 3a3e 7fc3 cc3d
00000180: cb31 023d 7d47 c23b d325 093e 734a 933e
00000190: 3620 1d3e 1db6 3e3d 9cd1 d2ba 5cfd 08bd
000001a0: d1f5 143e 3fb6 b6bd 0a2e 103e 8073 793e
000001b0: 4b15 68bd 0aec d5be 8176 72bc 36c4 d8bd
000001c0: 63fd 813d 9b5a 383e f1da 163e 019b 16bf
000001d0: 6875 20be 821b ab3e b4b7 31bd 80d7 a2bd
000001e0: e8b9 903d 1573 a93d 60d9 773e 2850 283d
000001f0: e1bf a53c 6d94 793d 7ad1 563e c6f0 e43a
00000200: 63f0 003e 989e 543e 8eae 8b3e 6b1a f5ba
00000210: ffe6 9d3e 1a62 3ebe ecb1 953d ddf6 943e
00000220: c218 2e3e 6eb5 533e 2aa4 0b3f c3df 14be
00000230: 582f 7e3e 4c98 f33d f2f0 cbbc 2b98 803e
00000240: dbee 1bbd 48af 3a3e 8f11 613d c3af d3be
00000250: a953 e7be 5a8c cd3d c24e 603e 9ce0 48bd
00000260: 782b 0d3e 7f6d 3bba caf7 48bc 5d98 343e
00000270: cf44 d3bd 2179 be3c fda6 adbd b254 fa3d
00000280: b4da f13c b03c 3b3d 5b3a 7d3e 66f5 8b3c
00000290: 84f8 3f3e e680 083e 5294 5fbe 28c4 603e
000002a0: 66e6 983e ec85 d9bd 713c 053f 2065 843d
000002b0: 2451 8ebe 483c 3e3e 97da f0bc de22 973e
000002c0: f879 f43d 9336 cd3e 5306 173e e75e c33e
000002d0: 89b5 f4bc 74fa c2bc 85bd 923e fdcb d83c
000002e0: e6c5 8d3c 90ac 283c acab 3bbd eb17 bcbc
000002f0: 3f37 d1bd 1894 803e 8f29 843c aed8 b0bd
00000300: 9236 513e b4f2 dd3a 66ee 403d c9ee e3bc
00000310: 58f0 19bd d3f4 233e 3c43 ecbe 7fdb 66be
00000320: d667 383e 1a4f d03d 9613 233e 2db1 9a3e
00000330: 1f50 3b3e eb74 ed3e 175b 24bd 944c 1dbe
00000340: 79f2 323e ee4f e5bb 28f4 573e 79b1 a23c
00000350: ed2f 333d a6e7 4b3e ae2f 1d3d 9dd1 4e3e
00000360: 508b c9bd 39a4 2a3d 6031 f53c 439d f13e
00000370: 506e a73d a958 0a3e 44ad 243e 95ed 513e
00000380: 445f a43e 0783 613e 1610 003e e4da 51b9
00000390: 7df5 303e 6747 01be 1d13 5abd b139 6dbd
000003a0: 9e27 ae3d 8787 ec3d f71a f33d d58d 603e
000003b0: 35c5 143d 70ab 95be 41ac 423e b4e6 f0bd
000003c0: 4648 973e 0380 e33d ec89 fb3d af3f 843d
000003d0: 4a62 e93d 435c 9b3e 83e6 cebe 6fb0 ccbd
000003e0: 27c8 133d e465 f83e 6c36 c8be 5ae0 873d
000003f0: 6901 543d cef7 debe 32f2 2cbf c775 b43d
0.14133382 0.23224217 0.09707021 0.0074886326 -0.12047497 0.08810393 0.05344354 -0.11799808
0.055266887 -0.06343559 0.21770178 0.10252573 -0.036893502 -0.34754145 0.020740474 0.050371222
0.032729473 -0.026763361 -0.1173724 -0.36607745 -0.058530126 0.24469675 0.10406268 -0.12791164
0.16272774 -0.040838346 -0.017678019 0.09602206 0.1635008 0.058179304 -0.3506299 0.102015235
0.0495911 0.27944407 0.090483315 -0.26728612 0.10267044 0.055988524 0.007307154 0.23928079
0.15927294 -0.12768483 -0.08862537 -0.08117359 0.06691633 0.22388674 -0.0197341 0.16505562
0.105415456 0.14761889 0.038592152 0.03830707 -0.032781564 0.10013959 0.07316853 0.032652017
0.35462743 0.07494219 0.03317706 0.030259946 0.029948087 0.1659801 -0.030134521 0.04486005
0.22803418 -0.108847305 -0.0004999396 0.014109213 0.12902305 -0.23176399 -0.021233113 -0.43898785
0.063051015 0.15630756 -0.29603255 0.3299629 -0.26821882 0.17132501 -0.2791971 -0.28474322
0.065280564 -0.4522465 0.15067506 -0.4920351 0.04933227 -0.24905795 0.00043637687 0.22722284
0.07636487 0.011474157 0.021968562 -0.45509657 0.03706486 0.0026143386 0.18225753 0.099982254
0.031785768 0.005928932 0.13393335 0.28767738 0.15344319 0.046560396 -0.0016084197 -0.033444747
0.14546897 -0.089214794 0.14080063 0.24360466 -0.05666093 -0.41781646 -0.014798761 -0.10584299
0.06347158 0.18003313 0.14731957 -0.5883027 -0.15669787 0.33419424 -0.043388084 -0.079512596
0.07066709 0.08273903 0.24204016 0.041092068 0.020233097 0.060932565 0.20978346 0.0017466776
0.125917 0.20763624 0.27281612 -0.001869989 0.308403 -0.1859211 0.073093265 0.29094592
0.17001632 0.20674679 0.5454737 -0.14538483 0.24822748 0.11894283 -0.024895165 0.25116095
-0.038069587 0.18230927 0.054948386 -0.41345033 -0.45181015 0.100365356 0.21905044 -0.04904233
0.13786113 -0.00071498 -0.012266109 0.17636247 -0.103158586 0.023251118 -0.08479116 0.122231856
0.029523231 0.045712173 0.24729292 0.017084789 0.18747145 0.13330421 -0.21833923 0.21949828
0.2986328 -0.10621247 0.5204535 0.064646006 -0.2779628 0.18577683 -0.029401107 0.2951879
0.11937326 0.400807 0.14748506 0.38158342 -0.029871719 -0.023801066 0.28660217 0.026464457
0.01730628 0.010295048 -0.045818016 -0.022960624 -0.102156155 0.25112987 0.016133098 -0.08635078
0.20430973 0.0016933293 0.047102354 -0.027823823 -0.037582725 0.16011362 -0.46145046 -0.22544669
0.1800836 0.101713374 0.1592544 0.302133 0.18292283 0.46378264 -0.040125933 -0.15361243
0.17475308 -0.0069980538 0.21089232 0.019860016 0.043746877 0.19912586 0.03837555 0.20197149
-0.09841025 0.04166052 0.02993077 0.47190294 0.08175337 0.13510384 0.1608172 0.20500787
0.32103932 0.22022639 0.12506136 -0.00020013336 0.17281146 -0.12624894 -0.053240884 -0.057916347
0.0850365 0.11549287 0.118703775 0.21929105 0.036320884 -0.2923236 0.19011022 -0.11762753
0.29547328 0.11108401 0.12282166 0.06457459 0.113957 0.30343828 -0.4041024 -0.099945895
0.036079552 0.48515236 -0.3910402 0.066345885 0.051759157 -0.43548435 -0.6755706 0.08811527

fc3.bias f4 [4]
00000000: e8db 393f 01d7 2c3f 05e2 3e3f bc84 323f
0.72601175 0.6751557 0.7456363 0.69733787
