Python/dqnAgent_Trained_Model_20220927-123258.pth (torch, 85783 bytes, 6 tensors)

fc1.weight f4 [128, 30]
00000000: 8029 b3ba 2895 c83d f944 1abe 9496 09be
00000010: 8903 90bd cb78 273d 8011 6dbb a9f3 0b3e
00000020: d8ba 84bc 34e2 453d 5596 63bd 0cff 12bd
00000030: ac9b 32be 9ba2 f7bd 9822 9abd e09d dd3b
00000040: 10d2 933d 0c5b e03d 86cf febd 23d3 a2bd
00000050: accf 873d f83e 1b3e fce6 19bd bee6 0b3e
00000060: d012 f1bc b842 9e3c d44f 293e fa6e 2dbe
00000070: a7c9 ebbd b052 3dbd 38c0 91bd b487 213e
00000080: a026 05be bb1f acbd 719d 02be 7d18 2fbe
00000090: 7c44 dabd fcb4 203e acd8 a63d 9039 b53d
000000a0: 00cd 08bb d0b2 bfbd 680a fd3c 4f8f 2ebe
000000b0: 8c16 07be 48c3 c0bd 4cea eb3d 843b db3d
000000c0: 72cd bdbd c0dd d7bb ac23 ef3d eedb 393e
000000d0: 2466 943d 200d ca3c ecb3 fa3d 0429 dcbd
000000e0: 18d2 cf3c aff2 10be 2a6a eabd 2128 c1bd
000000f0: 602f a93d 605f 963d d87c ddbd 44ec 613d
00000100: 6844 cd3d d8c6 bcbc a06c e43b 3846 2d3d
00000110: 58f7 e73d 9683 333e 9a12 10be 0407 89bd
00000120: 7cf3 923d fae6 1a3e c2b0 223e 3cf6 243e
00000130: ecd3 143d dc92 22be a096 893c daeb e9bd
00000140: 013c 2ebe e61b 263e 5e27 0e3e 6a7e 3abe
00000150: c4f8 0b3d f0f4 fbbc 2020 f6bc 2729 abbd
00000160: 48ca 8f3d 2778 ddbd a812 893d 1c17 bd3d
00000170: 169e 143e 50cf 8b3d 7309 39be 567c fbbd
00000180: 28b3 ba3d a728 0c3d 63d7 11be 474e d7bd
00000190: e6a8 3e3e d4f2 fb3d f608 a3bd 4437 3cbd
000001a0: 0157 14be 4010 57bb f2c9 0cbe b135 10be
000001b0: c333 853b 6890 e03c d520 99bd f8de dd3d
000001c0: 3f8a e3bd 64a3 293e f41e 003e 22a8 1dbe
000001d0: edf0 47bd a0f9 063c e393 c43c 545d 313d
000001e0: d0bb 923d e02d 333c 38e6 a1bd 58ee b03d
000001f0: 5956 33be aaa0 d9bd e033 3bbd fac1 b0bd
00000200: 8fce 82bd b03b 19be 75f9 ebbc 28da 1f3d
00000210: 4097 f3bd f082 19bc 2a32 203e c0c0 99bc
00000220: 0045 a63b 2007 81bc 9195 3f3d 7cbf ed3d
00000230: e417 313e 7874 ed3d a07f 313e e055 58bc
00000240: 52f2 27be 5c43 b1bd e442 ee3d 0021 9bba
00000250: 79b2 b7bd 3d44 0fbe 8ff6 2ebe d9ca 1dbe
00000260: a8af 17bd 380e cd3d f426 ca3d 694e 34be
00000270: 543d e93d 784b 12be 0019 1ebd 6e9c 97bd
00000280: d40a 10bd 6cd4 12bd d2c3 27be c46c 21be
00000290: c809 eabc 80bc 1a3b dadb a9bd 34da 8c3d
000002a0: 7345 28be d0df 49bc a869 243e 0484 98bd
000002b0: 62d2 283e e269 873d 70b8 28be b492 ec3d
000002c0: e896 acbc b6ea a6bd fc7f 153e 0614 17be
000002d0: 887d a03c 2892 1cbd bb34 323e 3cc0 503d
000002e0: acaa b33d e205 6d3d 2cd5 33bd bfce 35bd
000002f0: 2311 1abe 1c9a ca3d 2523 413e 00d7 ff3d
00000300: ebdf 03be 5069 053c 491f c5bd 25d5 cdbd
00000310: 6be1 d9bd a890 7f3d ac0a 85bd 0086 82bb
00000320: 20ad fb3b 4008 f13d e252 0dbe fa58 00be
00000330: c41d d9bd 52db 023e 8282 72bd fcb1 1d3e
00000340: f306 c13c 5063 bd3c 8023 b2ba bcd4 13bd
00000350: 32a1 233d f8c2 2abd 0025 a8ba 30a0 e13c
00000360: e83c 12be 28fa b9bd 30f7 163e 37b9 17be
00000370: 13d6 803b b0f1 383e 2212 873d a062 a93b
00000380: 4c55 fcbd 4c3a b93d 462a 05be cc47 54bd
00000390: 1ddf 36bd 907c ddbc 00e1 023b e433 1a3e
000003a0: 08b7 ba3c 8274 273e 00ba e43d 7064 ecbd
000003b0: 419b 923d 8f28 04be 6cfb a1bd b4f3 5b3d
000003c0: f0ec 763d 7642 0c3e 82bc 70bd 003c 9939
000003d0: a87f c03d bccd 34be 602a 073e 1c99 1abe
000003e0: 00e9 243b 0049 febc e7ed c4bd 68ae c53c
000003f0: ee98 1a3e 809a 5abd 43fd ddbd 8349 8abd
-0.0013668984 0.09794074 -0.15065373 -0.13436347 -0.07031924 0.04088668 -0.003617376 0.13667168
-0.016202375 0.048311427 -0.05556329 -0.035887763 -0.17442197 -0.120915614 -0.075261295 0.006763205
0.072178006 0.10954866 -0.12441926 -0.079504274 0.06631407 0.1516074 -0.0375738 0.1366224
-0.029427916 0.019318923 0.16534358 -0.16936865 -0.115130715 -0.046221435 -0.07116741 0.15774423
-0.13003016 -0.084044896 -0.12755372 -0.17099185 -0.106575936 0.1569404 0.08146796 0.0884887
-0.0020874143 -0.09360278 0.030888751 -0.17046855 -0.13192195 -0.09412247 0.11519298 0.10704711
-0.09267701 -0.006587714 0.11676726 0.18150303 0.07246044 0.024664462 0.122413486 -0.107500106
0.025368735 -0.14155076 -0.114460304 -0.09431482 0.08260989 0.0734241 -0.10814828 0.05515696
0.10022813 -0.023044035 0.006970957 0.042303294 0.11326474 0.17530665 -0.14069596 -0.06690791
0.07175347 0.15127173 0.1588774 0.16109556 0.036334917 -0.15876335 0.016795456 -0.11421938
-0.17015077 0.1622158 0.13882205 -0.18212286 0.03417279 -0.030756444 -0.030044615 -0.083574586
0.07021004 -0.10813933 0.066930115 0.092329234 0.1451343 0.06826651 -0.18070011 -0.122795746
0.091162026 0.034218457 -0.1424232 -0.10512977 0.18619117 0.12302175 -0.079606935 -0.045951143
-0.14486314 -0.0032816082 -0.13748911 -0.14082982 0.0040650084 0.027412608 -0.07476965 0.108335435
-0.11110353 0.16566235 0.12511808 -0.15396169 -0.04881375 0.008238226 0.0239963 0.043301895
0.07164729 0.01093623 -0.07905239 0.086392105 -0.17513408 -0.10626347 -0.04570377 -0.08630748
-0.06387054 -0.14964175 -0.028805474 0.03902641 -0.11894083 -0.009369597 0.15644136 -0.018768668
0.0050741434 -0.015750468 0.046773497 0.11608788 0.1729427 0.1159448 0.17333841 -0.013204068
-0.16401032 -0.08655426 0.11633852 -0.0011835396 -0.08969588 -0.13990875 -0.17086242 -0.15409411
-0.037032753 0.10012478 0.09870711 -0.17608036 0.113886505 -0.14286602 -0.03859806 -0.074028835
-0.035166577 -0.035847113 -0.16383293 -0.15764147 -0.028569117 0.002361089 -0.082938865 0.068775564
-0.16432743 -0.012321427 0.1605593 -0.07447055 0.16486505 0.066119924 -0.16476607 0.11551419
-0.021068051 -0.08150236 0.14599603 -0.14753732 0.019591108 -0.038225323 0.17402928 0.05096458
0.087727875 0.05786694 -0.04390447 -0.04438662 -0.150456 0.09892675 0.18861063 0.1249218
-0.12878387 0.008142784 -0.09625108 -0.1005042 -0.10638698 0.062393814 -0.06496176 -0.003983259
0.00768055 0.11769152 -0.13801149 -0.12533942 -0.106013805 0.12778977 -0.059206493 0.15399927
0.023562884 0.023118645 -0.0013590902 -0.03609155 0.03994865 -0.041689843 -0.001282841 0.027542204
-0.14281046 -0.09080917 0.14742732 -0.14816748 0.0039317696 0.18060946 0.065952554 0.0051692277
-0.123209566 0.09044322 -0.13004407 -0.051826283 -0.04464637 -0.027036935 0.0019970536 0.15058857
0.022792354 0.16353038 0.11168289 -0.115425944 0.071585186 -0.12906097 -0.07909283 0.05369921
0.060284555 0.13697228 -0.058773525 0.00029227138 0.093993485 -0.17656606 0.13199759 -0.15097469
0.0025163293 -0.031040668 -0.09615689 0.024131015 0.150974 -0.05337 -0.108393215 -0.067523025

fc1.bias f4 [128]
00000000: 5dc6 26be e7ad 2ebe 5471 20bd 9d66 1d3e
00000010: c535 843d 8c04 0d3d 4e35 9bbb e59c 3b3e
00000020: 0030 e53a 3c81 7c3d 402d 3e3b 1240 7e3c
00000030: f226 583d d792 1f3e b232 fb3d 517a c23c
00000040: fd71 cc3d bf9d 9bbd fa0f 123e c1ce 0a3d
00000050: c5b1 003e 67c5 e1bc 1979 fdbd b8ba 133d
00000060: e5ae a53d b6b2 2c3e 8716 833d e0b2 843d
00000070: 510d 0a3e bd7f 80bd b964 433e d8b3 bf3d
00000080: b646 0b3e 4070 0c3e c82d 27be fb3b b53d
00000090: a037 1a3e 2c57 03be ee08 c5bb 3132 e4bd
000000a0: d893 34bd a0e4 de3c 06d1 c53d 78e6 70bd
000000b0: 6408 31be 487d dd3d 0022 0a3e aa3f dbbc
000000c0: 47be 1f3e 87ea 293e 91ed ccbc ff94 c63b
000000d0: bcba 033d bbee edbc 4ef8 72bd 0704 bdbd
000000e0: 51a1 f3bd 6d4d 033e 200f 5ebd 79a4 9dbd
000000f0: 7a91 253e f7ab 153d 5b91 0a3e b944 3f3e
00000100: 38b1 d2bc da52 243d 7826 363e dca1 00be
00000110: 9d6e 82bd 6977 093c b541 c7bc 539a 0f3d
00000120: 049d c43d ca11 87bd b7eb 2d3c 6601 413e
00000130: 478e e7bd 4e8f fdbd 7960 0fbe 21a4 c63d
00000140: 637b 2bbe 6fd5 b5bd 5963 0d3e 9cc4 ebbd
00000150: 73b7 213e 58ca aebd 1b49 0f3d 68c8 c33c
00000160: 54e7 3bbc a98c 0c3e 6153 1a3e 1f47 c9bd
00000170: cf31 bb3d a804 503d f638 bebc 99b8 02be
00000180: a381 773d dc3d 133e ac65 0fbe 2efa 32be
00000190: 1dcb 37be 3f47 3c3d e9ad 84bd 95fb 27bd
000001a0: ae25 2e3e 78be 3ebd aa73 edbd 1089 863c
000001b0: bd06 eebd 84d8 3abd f26b b23d 5db3 563d
000001c0: 054b 00be 8da2 263e ef47 113e dee3 febd
000001d0: 3d2f 953d d71e 7f3d 2a56 f4bd 7c54 09be
000001e0: 2b47 1ebe dc5b 9d3d 6705 293d b43d c83d
000001f0: 768a acbd 3fff 133e d700 1e3d 7a19 0cbe
-0.16286607 -0.17058526 -0.039170578 0.15371175 0.06455568 0.034428164 -0.004736579 0.1832157
0.0017485619 0.061646685 0.002901867 0.015518205 0.052771516 0.15583359 0.12265529 0.023739966
0.09982679 -0.07598447 0.14263907 0.033888582 0.12567814 -0.02755995 -0.12376613 0.03606674
0.08089999 0.16865048 0.06400781 0.0647943 0.13481642 -0.06274364 0.19081391 0.09360474
0.13601193 0.13714695 -0.16326058 0.08849331 0.15060282 -0.12826222 -0.0060130274 -0.11142386
-0.044086307 0.027208626 0.09659009 -0.058813542 -0.17288357 0.10814911 0.13489532 -0.026763756
0.15599929 0.16593371 -0.025015624 0.006060242 0.032160506 -0.0290445 -0.059318833 -0.09229284
-0.11896003 0.12822504 -0.054213643 -0.07697386 0.16168776 0.03654095 0.13532011 0.1867856
-0.02571927 0.040118076 0.17788112 -0.12561744 -0.06368754 0.008390286 -0.024323324 0.035059284
0.09600261 -0.0659519 0.010615281 0.1884819 -0.11306434 -0.12380849 -0.14001645 0.09699274
-0.16746287 -0.088786 0.1380743 -0.1151211 0.15792637 -0.08534688 0.03498183 0.023899272
-0.011468727 0.13725533 0.15070869 -0.098280184 0.091403596 0.05078569 -0.02322052 -0.12765731
0.060426366 0.14379066 -0.14003628 -0.17478248 -0.17948575 0.045966383 -0.06478483 -0.04101141
0.17006561 -0.046568364 -0.11594327 0.016422778 -0.11622379 -0.04561664 0.08711995 0.052417148
-0.12528618 0.16272946 0.14187597 -0.12445806 0.072844006 0.06228527 -0.11930497 -0.13411134
-0.15456836 0.076835364 0.041264918 0.09777394 -0.08424847 0.14452837 0.03857502 -0.13681594

fc2.weight f4 [128, 128]
00000000: 3440 b6bc 02c3 383d 4c36 9f3c 3c02 b8bc
00000010: 1c79 90bd 7b36 61bd 9322 9c3d 08de 68bd
00000020: 2947 803d 2e5c f2bc 009a 673a ebf6 bcbd
00000030: 225f ebbc c33a 863d e384 a2bd 91aa 1d3d
00000040: 4d74 aabd a037 533c 3576 b8bd cd84 a2bd
00000050: 47e7 a3bd f212 fbbc bbca 7d3b e4b7 84bd
00000060: e481 b73c 318d 343d 55f8 883d f847 8e3d
00000070: 873a 4a3d e036 d5bc 78f8 8bbc 4d29 a03d
00000080: cee9 0f3d 4dca 03bd 5fab 883d a82c b1bd
00000090: 21b9 883d 1290 4a3d d4d7 96bd 48a4 93bd
000000a0: d18f 8d3d ef93 b23d 786a 8eba 1976 0dbd
000000b0: 4226 4e3d dece fd3c 62a5 a3bc 5bed 903d
000000c0: 75ca 453d 86a2 563c 0406 203d 8961 bbbd
000000d0: 0295 29bd 90be 1e3c 5ce8 c43c 68fa 45bc
000000e0: 86b3 083d fb4e 913c 7e4c a7bd 2063 e43c
000000f0: b4f1 77bc 9f22 79bd b36b bebb 07ef fabc
00000100: ca41 40bd 5331 b7bd 1d6f 973d 64dd 5bbd
00000110: e080 423c bb03 913d b65b a5bc 0349 6dbd
00000120: e820 afbd b89d 703c 45a8 35bd d9e7 1fbb
00000130: b571 9b3c f027 cdbc d67a 753d c039 a6bc
00000140: 237c 10bd 1161 6fbd 5964 933c 0dd5 5fbd
00000150: 7ea7 1f3c 78c5 36bc 1ad0 783d ae7c 31bd
00000160: ca70 56bd d826 3bbc 6820 5dbd 65cc cb3c
00000170: e2ba 25bd 1889 143d b7a1 2e3d 3268 533d
00000180: ad53 cdbc 42e2 203d 449a 69bd c65b b4bd
00000190: 18d2 09bc 4740 83bd a23d 8cbd 9249 563c
000001a0: d717 8d3d 6b79 0ebd 80d6 a3bb c325 83bd
000001b0: fb7f e53b a86e ce3c 0dc0 b3bc 8fb9 893d
000001c0: 78b0 91bd a989 a2bc 993b 62bd 23f2 9e3d
000001d0: 7353 993d 3d56 a03d b98b a63d 4863 0f3d
000001e0: f09b 8abd ca09 8dbd 3cde 493c bd90 b3bd
000001f0: f6b3 403d a14a f23c c8c2 ac3c 67ff 9dbd
00000200: a1ae 833d 2844 19bc d4ec 17bd 2206 3d3d
00000210: 30c1 f43b a50c 21bd f478 a93c aa6d 71bd
00000220: ed3d a83d b7a9 9e3d 36f7 263d 4a87 3f3d
00000230: 8cf1 b3bd b540 49bd 6030 aebd 5ab2 3cbd
00000240: 1414 96bd 413e 853d 0653 433d 9635 553d
00000250: bbb8 20bd 79f8 893d 1042 51bc a899 bbbc
00000260: f2ee 423d dec0 6f3d a81a 82bd f355 ac3d
00000270: 5829 12bc d0d9 c03c 613f b4bd 7037 213c
00000280: c62d 33bd e9af 62bd 1d29 17bd 00dc d7b9
00000290: ac46 cebc 7beb 67bd 679b 813d 9469 d73c
000002a0: f376 a8bd 50e3 973c 74de b13c 60da 543b
000002b0: 14d3 af3c e07d f2bb be55 1e3d 2ade 7ebd
000002c0: de5d 1abd 4b9a 873d 324c 60bd a6a0 313d
000002d0: ff7d a73d a986 a5bd 5e9c 1ebd 2d7a 9a3d
000002e0: 9021 afbb 54f1 8e3c c819 4e3c 2232 153d
000002f0: e02b 15bd b000 3c3c 269d 763d 2057 f4bb
00000300: ca13 a6bd fc47 fa3c c8d8 b8bc ecc1 98bc
00000310: e2d0 3c3d 50cb 7d3c 1c04 5bbd f311 27bd
00000320: 2822 5cbc f0e4 b2bc 7849 99bc e974 77bd
00000330: 9922 833d dac2 3b3d cce4 8e3c 54f2 a33c
00000340: 6888 293c b55a 873d 50d8 a33c b099 5c3c
00000350: 4204 47bd c88b f13c 1e5a a9bd 985d e43c
00000360: d7e7 9cbd 6cd6 15bd 5a22 3f3d 75a2 57bd
00000370: 0f24 903d a408 48bd b975 ab3d 5c2b df3c
00000380: 16e4 1cbd bacc 5c3d 354f a0bd 2159 65bd
00000390: 21d2 62bd 90a2 3e3c 6045 0e3c 2fb2 9bbd
000003a0: 31ad ae3d 0028 b1b8 d453 41bd 205d 0a3b
000003b0: 0468 1bbd 64c4 c73c b60f 033d 8064 cdbc
000003c0: 70d9 a83b 7a6a 573d 347b 6bbd e875 a1bc
000003d0: 70a3 55bc 8a87 6fbd 80e5 eb3b c0e4 543b
000003e0: ea36 92bd f488 943c e1c6 ac3d ea90 403d
000003f0: 3062 44bd f5b2 a53d fcdc 78bd b713 38bd
-0.022247411 0.04510785 0.01943507 -0.022462003 -0.0705435 -0.054983597 0.07623782 -0.05685237
0.06263573 -0.02958497 0.00088348985 -0.09226783 -0.028731886 0.06554177 -0.079355024 0.038492743
-0.08322964 0.01289168 -0.09006921 -0.07935486 -0.08003097 -0.030648682 0.0038725573 -0.06480387
0.022400804 0.044079963 0.066879906 0.06947321 0.049372222 -0.026027143 -0.017086253 0.078203775
0.035135083 -0.03217535 0.066733114 -0.08651096 0.066759355 0.049453802 -0.07365385 -0.072090685
0.069121964 0.08719622 -0.001086547 -0.034536455 0.050329454 0.030982431 -0.019976322 0.07076522
0.04828878 0.013100272 0.039068237 -0.09149463 -0.04140187 0.009688988 0.024036579 -0.012083627
0.033374332 0.017737856 -0.081688866 0.027879298 -0.01513331 -0.060824033 -0.0058111786 -0.030631555
-0.04693774 -0.08944955 0.0739424 -0.05367793 0.0118715465 0.0708079 -0.020185333 -0.057930958
-0.08551198 0.014686041 -0.044349927 -0.0024399667 0.018975118 -0.025043458 0.0599316 -0.02029121
-0.035274636 -0.05844218 0.017992185 -0.05464654 0.009744523 -0.011155479 0.060745336 -0.043331794
-0.052353658 -0.011422835 -0.053985983 0.024877736 -0.04046143 0.036263555 0.042634692 0.05161304
-0.025064314 0.039278276 -0.057031885 -0.08806567 -0.008411907 -0.06408744 -0.06847693 0.013079064
0.06889313 -0.034783762 -0.0049999356 -0.06403687 0.007003782 0.02519925 -0.021942163 0.067248456
-0.07113737 -0.019841032 -0.055232618 0.07761028 0.0748662 0.07828949 0.08132119 0.03500679
-0.06768024 -0.06886633 0.012321051 -0.08767841 0.047046624 0.029576601 0.021088973 -0.0771473
0.06429792 -0.009354629 -0.03709109 0.046148427 0.007469319 -0.0393187 0.020687558 -0.058942474
0.082149364 0.07747214 0.040763102 0.04675988 -0.08786306 -0.049133975 -0.085053205 -0.046068527
-0.07328048 0.065060146 0.0476866 0.052053057 -0.039238673 0.067368455 -0.012772098 -0.022900417
0.047591157 0.05853354 -0.063527405 0.08414831 -0.00892099 0.023541361 -0.08801151 0.0098398775
-0.043744825 -0.055343542 -0.036904443 -0.00041171908 -0.025180183 -0.056621056 0.06328469 0.02629546
-0.08225813 0.018541008 0.02171252 0.0032478794 0.021462955 -0.0074002594 0.03865599 -0.06222359
-0.037687175 0.06621226 -0.054760166 0.043366097 0.08178329 -0.08082325 -0.038723342 0.075428344
-0.005344577 0.017449059 0.012579389 0.036424764 -0.036418796 0.011474773 0.060208462 -0.007456675
-0.08109243 0.030551903 -0.022564307 -0.018647157 0.046097644 0.015490368 -0.053470716 -0.040788602
-0.013435878 -0.021837682 -0.01871179 -0.06041423 0.06403083 0.04584012 0.017443083 0.020013012
0.010347463 0.06609098 0.020000607 0.013464376 -0.048588045 0.029485598 -0.082691416 0.02787666
-0.076614074 -0.03658144 0.04666362 -0.052645165 0.07038128 -0.048836365 0.08372063 0.027242355
-0.038303457 0.05390618 -0.078276075 -0.055993203 -0.055376176 0.011635438 0.0086835325 -0.07602345
0.085291274 -8.447468e-05 -0.047199085 0.0021112636 -0.037940994 0.024385639 0.031997405 -0.025072336
0.0051528737 0.05259178 -0.057490543 -0.019709542 -0.013039455 -0.05847887 0.0071989894 0.0032484978
-0.0713938 0.01813171 0.08436371 0.0470132 -0.0479452 0.08090774 -0.060757622 -0.044940677

fc2.bias f4 [128]
00000000: eaf3 26bd 4b37 a0bd 49c2 a9bd 44c1 033d
00000010: 3a5c 5abd 0004 60bb e460 5e3d 2215 bb3d
00000020: 1eb7 8b3c 7d55 da3b cd7a 03bd 67cc 803d
00000030: 8c82 11bd d006 3e3d 45be 523d 625c 2cbd
00000040: 6ce3 1f3c 294a 893d da49 adbd 3981 7a3d
00000050: b72f 613d ea7e a6bd 457a 9f3d fbb7 883d
00000060: 76d5 533d 4d2f 713d 2b3a 803d 0b2c bbbb
00000070: b513 5f3c 00f0 eeb9 f32b 99bd b7e4 c53b
00000080: 8a39 373d 6c0f 873b 6eda c5bd 2dd1 a13c
00000090: 3728 213d 761b de3c d435 653c 8cda 633d
000000a0: ae8b 3d3d 34f9 4b3d 4c08 6bbd 5f23 57bd
000000b0: f55b 503d b15c 8f3d a461 343c 52c3 773d
000000c0: ea15 e0bc ac34 02bd 8020 1bbd c51d a03d
000000d0: 2654 89bd 7cec ff3c d754 a83c 9c43 14bb
000000e0: b52b 99bd 3b21 1c3d ba38 063d 754a 923d
000000f0: 66bf b03d a980 8dbd 974b 123d 1e9b f63b
00000100: 721f 77bc 331d b0bd b50f 613d 69f2 823b
00000110: aadd 213d 45c5 eebc 30d9 14bc cc7e c13d
00000120: f201 10bd 2ae4 e9bc 9c76 19bd 8500 94bd
00000130: 9b13 873d 85ac 03bc 7bb6 1e3c e020 883d
00000140: f435 9cbd f7c8 a8bd b277 93bd 2ae0 a23c
00000150: e0e5 0dbd 3da1 4d3d 2231 9a3d 9502 79bd
00000160: 80f0 2f3c d621 8dbd e476 b13c f3c4 2d3b
00000170: 5e3c c13c 94d5 c43c 4107 9f3c c075 44bd
00000180: b0b5 cdbb feb8 a43c 3f7e 49bd 5819 8e3d
00000190: 6720 273d 006c c9bc 20fc cc3c d0ca 29bd
000001a0: b46d 903c 22b0 ddbc 204e 56bc b259 8e3d
000001b0: ba7f 623d 07eb 323c d477 8fbd e243 a3bd
000001c0: 1b7d b4bd 8671 b5bc 4b4f afbd 308b 6a3d
000001d0: 8fd9 b1bd 43ae a3ba 3458 713d 1816 6c3d
000001e0: b8d7 4d3d 486f 8eba 0c4f 123d 1f2d 8a3d
000001f0: 32cb b9bd 1843 163c b84c 87bd 3434 993d
-0.04075996 -0.07823046 -0.0828901 0.032166734 -0.05331061 -0.0034182072 0.05429162 0.0913489
0.01705509 0.006663023 -0.032099534 0.06288987 -0.03552489 0.046393216 0.051450986 -0.04208029
0.009758811 0.06703598 -0.08461352 0.061158393 0.054977145 -0.08129676 0.07786993 0.066757165
0.051717244 0.058883 0.06261095 -0.0057120374 0.013615538 -0.0004557371 -0.07479086 0.006039228
0.044732608 0.0041217115 -0.09660803 0.019753063 0.039344992 0.027112704 0.013989884 0.055628344
0.046275787 0.049798205 -0.05738096 -0.052523967 0.050868947 0.07000101 0.011009607 0.060489006
-0.0273542 -0.031788513 -0.03787279 0.07818178 -0.06705503 0.031240694 0.020548267 -0.0022623306
-0.074790396 0.03811763 0.032768942 0.07143108 0.08630256 -0.069093056 0.03571662 0.0075258156
-0.015083181 -0.08599319 0.05494662 0.0039961827 0.039518036 -0.0291468 -0.009084985 0.09448013
-0.035158105 -0.02855118 -0.03746663 -0.072266616 0.06595536 -0.008036737 0.009687061 0.066468954
-0.07627478 -0.08241456 -0.072005644 0.01988228 -0.034643054 0.050202597 0.075289026 -0.060793478
0.010738492 -0.06891219 0.021663137 0.0026515096 0.023588356 0.024027623 0.019412639 -0.047963858
-0.0062777624 0.020107742 -0.049192663 0.06938428 0.040802386 -0.024587631 0.025022566 -0.041453183
0.017630436 -0.027061526 -0.01308015 0.06950702 0.05529759 0.010920293 -0.07005277 -0.07971932
-0.088129245 -0.022148859 -0.08560046 0.057261646 -0.08684074 -0.0012487847 0.058922008 0.057638258
0.050254554 -0.0010866905 0.035719916 0.067468874 -0.090719596 0.00917127 -0.0660643 0.0748066

fc3.weight f4 [4, 128]
00000000: 6672 383d 0cd9 70bd a001 aabc 4bf5 083d
00000010: 60e4 acbc b2d3 9bbd 9cbb 08bc 67a8 733d
00000020: 647e 2f3b 5278 ac3c c330 a1bd 1449 58bd
00000030: 9e17 4b3d a639 513d 0fed 1cbd efcd 46bc
00000040: 831d 98bc 350b de3d f0db 7dbd d0dd 3b3d
00000050: ffd5 003d 3ac4 6a3d 070f 1f3d e50f 75bd
00000060: e61b a3bd 0509 8a3d 81c6 83bd 0d30 5fbd
00000070: 2247 dabc 6a9b a1bd 500f 373d afe7 b43d
00000080: 5065 55bd 57a9 483c f0ac edbc 33e1 21bb
00000090: 0ba7 e93c 7939 a33c 7cc8 69bd bee1 313d
000000a0: 18ba 3dbc eacf 823d 6436 91bd d10e 70bd
000000b0: 5a39 5dbd 7197 a93c 2f95 d33d 6927 b03d
000000c0: b42a 1fbc 38e3 87bc de26 5ebd 91be 9bbc
000000d0: f8b5 b13c 0a31 4bbd 7c2e b3bc 8e8c ca3d
000000e0: 89c5 59bd c351 93bd 83ce 993d fa42 c53d
000000f0: 9ba1 533d 28b9 44bc 273c dfbc 7709 e73c
00000100: e13b 993c 4e17 32bd 7b18 a23d f4bb 29bd
00000110: d27c 85bd 88ef 843c 40eb 10bb be5a a73d
00000120: 3774 433d 80d8 973a 0bf0 28bc 376e 7b3c
00000130: 36c9 263b 696c 933d 1391 cd3c 076a 213d
00000140: 2fad 43bd d5f2 b03d b23b bdbc de5e 7e3d
00000150: 531a 043c 1851 c73d beb7 673c 80a4 983a
00000160: 185b 31bd 8f73 173d 7091 7bbd 8d58 8b3d
00000170: 6f3a a73d fa19 1038 f81c b73d 0b4a 9a3d
00000180: 171c a13d 396f 8ebd 38e8 36bd 85f2 91bd
00000190: 5cf9 743d b0e4 0cbd 3776 8f3c a2fe 663d
000001a0: 8562 453d 2b08 4a3b 90d9 fd3c 444c 49bc
000001b0: 6293 873c 26f0 0ebd e8a4 53bd 3f2c 843d
000001c0: 04f7 32bd bf18 973d 52c7 4c3d 2d27 f53c
000001d0: a800 ca3c 2c76 a63d bb63 5cbd 3db6 91bc
000001e0: 36ff f63c 1ff8 f4bc accb 5abd c0ae 5ebc
000001f0: 365e 5d3d a7b2 5cbd d267 cebc b65c c7bc
00000200: 2bd6 7e3d 1e70 97bd 1dfb eebb a047 6b3d
00000210: cbc8 9d3d 7879 69bc e409 85bd 6c45 8dbc
00000220: 0891 843d 3055 4bbc cdd6 7c3d a315 903d
00000230: a715 0f3d 16cf c2bc b330 72bd 78d8 4abd
00000240: 04d4 9abd 7bed debd e014 be3c cc49 88bd
00000250: 5da7 86bc d4df b03c cdd7 243d e4de 713d
00000260: 248a 9ebd c10f 2ebd 0791 61bd 9d0e fd3b
00000270: 7c60 a5bd 52e5 1b3d 63b8 e13c d61f 50bd
00000280: 0f24 863d 8ecf fbbc 5746 9a3d 1196 983d
00000290: 31ea 84bd 6bab 9c3d 0eb1 573d c596 7dbd
000002a0: 5435 93bd 3715 53bd d165 923d eeac 903d
000002b0: b204 0e3d 3f85 cf3d 13e9 3bbd 44bc be3c
000002c0: ea97 09bd f1fc 12bd 6300 923c 8bac 52bd
000002d0: 889c 113d 002e b939 e1a0 b6bd 6038 03bd
000002e0: 623e e7bc a8ec 283b b6bf 263d 472c 65bd
000002f0: e5bc 67bd fbf4 15bd dc0c 053d f2e2 303d
00000300: a5c9 a5bd 4a62 e63c 3d57 113d feea 203d
00000310: d840 923d 156d 59bc 284e 583d 99b4 80bc
00000320: c84d 743d 6e55 603d db31 19bc dc17 0c3d
00000330: e64b 7dbd b35b 1b3d d82f 81bd 35e7 50bd
00000340: be17 fcbc 2f02 733d cee5 7bbd 64a0 703d
00000350: 523b 183d 737f 883d 91af 15bd 197c 37ba
00000360: b266 a6bd f4bb 933d cd85 fbbb 53f7 2e3d
00000370: 7172 733c 08d9 8ebd 2793 40bd af92 1dbc
00000380: c8d6 0bbd 0c2d 903b deba 72bc 9593 b93c
00000390: ded0 e1bc 006e b2bc 9b22 503d 5128 953d
000003a0: 358d 83bd d605 c63c b1cd 8ebd ced9 643d
000003b0: 651b ad3c 0a9e cfbd 3bb8 993d 002f 3c3d
000003c0: 9281 913d d8c2 123b 2e5e 91bd bccf 393c
000003d0: 15b4 083d cf06 b93c 5457 373d f057 35bd
000003e0: 6bbf e5bc 84a3 0cbd 8fc0 b4bd 2aea 923d
000003f0: 4344 a13d 5284 df3a 35d5 3cbb 0bc3 6dbd
0.045030974 -0.058800742 -0.020752728 0.033437055 -0.021104991 -0.07608737 -0.008345511 0.059486773
0.0026778216 0.021053467 -0.07870629 -0.052804068 0.04958307 0.05108037 -0.038312014 -0.012134059
-0.01856876 0.10841981 -0.061977327 0.045865834 0.031454083 0.057316042 0.03883269 -0.05982961
-0.079643056 0.067400016 -0.06434346 -0.054489184 -0.026645247 -0.07890971 0.044692338 0.08833253
-0.052098572 0.012247405 -0.029013127 -0.002470088 0.028522035 0.019924866 -0.057075962 0.043428175
-0.011580013 0.06387313 -0.07090452 -0.05860788 -0.054009773 0.020702096 0.10331189 0.08601267
-0.009714771 -0.016587839 -0.054236285 -0.019011768 0.021693215 -0.049607314 -0.021872751 0.0989009
-0.0531669 -0.07193329 0.07510092 0.096319154 0.05166779 -0.012007035 -0.027250363 0.028202755
0.01870531 -0.043479256 0.079148255 -0.04143901 -0.06517948 0.016227499 -0.0022112876 0.081716046
0.047718253 0.0011584908 -0.010311137 0.0153461015 0.002544952 0.07198412 0.02509359 0.039407756
-0.047772583 0.086400665 -0.023099754 0.06210219 0.008062917 0.09732264 0.014142929 0.0011645705
-0.043299764 0.03697544 -0.061417997 0.06803999 0.08165442 3.4356468e-05 0.08941072 0.07533654
0.07866686 -0.06954808 -0.044655055 -0.07126335 0.05980812 -0.03439778 0.017512424 0.05639518
0.04818966 0.0030827622 0.030987531 -0.01228625 0.01654977 -0.034896992 -0.05167094 0.06453752
-0.043692604 0.07377767 0.049994774 0.029925907 0.024658516 0.08128008 -0.053806048 -0.017787093
0.030150991 -0.02990347 -0.053416893 -0.013591468 0.054044925 -0.053881314 -0.02519599 -0.0243362
0.062215965 -0.073944315 -0.0072931186 0.057441354 0.07704314 -0.014250152 -0.06496027 -0.017245017
0.06472975 -0.012410447 0.061728287 0.07035377 0.03493276 -0.023780387 -0.059128474 -0.049522847
-0.0755997 -0.108851396 0.023203313 -0.06654701 -0.016437227 0.021591105 0.040244866 0.059050456
-0.07741192 -0.042495493 -0.05506995 0.0077226893 -0.080750436 0.038060494 0.027553743 -0.05081161
0.065498464 -0.030738618 0.075329475 0.07450498 -0.06489981 0.07649883 0.052659087 -0.061911363
-0.07187906 -0.051533904 0.07148326 0.07064234 0.034672447 0.101328366 -0.045876574 0.023283131
-0.033592142 -0.035885755 0.01782245 -0.05143408 0.03554967 0.00035320222 -0.08917404 -0.032036185
-0.028227989 0.0025775824 0.040710174 -0.05595043 -0.05657663 -0.036610585 0.032482967 0.043185182
-0.08095101 0.02812304 0.035483588 0.039286606 0.07141274 -0.013270636 0.05280891 -0.015711116
0.05964449 0.054768972 -0.009350265 0.03420244 -0.06183996 0.037929248 -0.063079536 -0.051001746
-0.03077304 0.059328254 -0.061498456 0.05874671 0.037165947 0.06664934 -0.036544386 -0.0006999388
-0.08125056 0.072135836 -0.0076758624 0.042716336 0.014858828 -0.06974989 -0.047015335 -0.009617492
-0.03414038 0.0043999013 -0.01481506 0.02265338 -0.027565416 -0.021780968 0.050814252 0.0728308
-0.064234175 0.024172705 -0.06972826 0.055871777 0.021131227 -0.101375654 0.07505842 0.04594326
0.07104792 0.0022393968 -0.070980415 0.011341032 0.033374865 0.022586254 0.044761017 -0.044273317
-0.028045377 -0.03433563 -0.0882579 0.071735695 0.07874348 0.0017052984 -0.0028813605 -0.058047336

fc3.bias f4 [4]
00000000: 05f9 23bd 29f5 c43b c0c7 91bd 8932 bebd
-0.040032405 0.0060106707 -0.071181774 -0.092869826
