Python/dqnAgent_Trained_Model_last_2.pth (torch, 89367 bytes, 6 tensors)

fc1.weight f4 [128, 37]
-0.50752205 0.261766 -0.055260886 -0.63580024 0.042053126 -0.44077855 0.16041772 0.004254388
-0.7357309 0.016754923 0.015966415 0.06122759 -0.52772987 -0.64004844 -0.25346798 -0.24463482
0.16902086 0.046828773 -0.78823656 -0.081677616 0.43772554 -0.13628949 -0.68023 -0.25411776
-0.57797414 -0.0016027291 0.22994798 -0.7053663 -0.6068512 0.03921851 -0.15989105 0.18186677
-0.12461393 -0.5013105 -0.26583156 -0.09039844 -0.07405201 0.04143854 0.3054406 0.00960215
-0.45472935 -0.22575179 0.14195108 -0.23448423 -0.3100564 -0.39580137 0.086938895 0.24181046
-0.112898044 -0.36501804 0.09116002 0.21722916 0.019887341 -0.1280842 0.26453388 -0.53365976
-0.3439223 0.039298926 -0.2680025 -0.23945254 0.060836025 0.007375523 -0.21579494 -0.16165979
0.36210302 -0.19853057 0.21601635 -0.12294405 -0.0058846776 0.07542132 0.005665476 0.25345704
0.024020491 0.037698876 0.1363154 -0.057186242 0.31733143 -0.16276164 0.020212334 -0.54334384
0.11324516 0.25901228 -0.11452731 -0.13340081 0.007885046 0.16624655 -0.05661911 -0.38702297
0.13473828 -0.04733745 0.11588109 0.09181933 -0.013484341 0.1885081 -0.44490093 0.065954864
0.08052962 0.14901884 -0.073925525 -0.5961949 0.23277907 0.24452065 0.10538386 -0.026605338
-0.5335266 0.10712778 0.03551304 -0.07509931 0.049503185 -0.10292908 -0.029275494 0.15170038
-0.19671059 0.12311102 0.118565336 -0.68977624 0.15023279 -0.021725977 0.0020353955 -0.21418954
0.29745117 -0.056668904 0.19963211 -0.10743933 -0.19674945 -0.045397185 0.100326926 -0.51211977
0.14178044 -0.45916983 -0.24486776 0.3439857 -0.22730285 -0.052903607 0.049575046 -0.33810312
-0.026297925 -0.029921427 0.001906835 0.25993443 0.22483481 0.2586032 0.19884555 -0.22004403
-0.104013875 -0.1815449 0.082098976 -0.04760781 -0.02956497 -0.017681424 -0.03838074 -0.07354841
0.0586343 0.5485375 -0.6804156 -0.54460764 -0.40658125 -1.9753683 0.053507693 0.016276136
-0.02244561 0.08350313 -0.001127814 -0.09737689 -0.047879055 0.11073813 0.057382416 0.22510274
0.0301112 0.07226601 0.100777894 0.25637203 0.14274715 0.19657 0.23274782 0.04681726
-0.080695964 -0.20136346 0.1449618 0.08534214 0.053549197 0.19046018 -0.116002046 0.009589821
-0.002042716 -0.08495705 -0.16273816 0.0060117175 0.010002061 0.54101247 -0.009423497 0.08004005
-0.033966955 -0.19159384 -0.07664777 -0.034566462 -0.17581184 0.025741354 -0.25813833 0.14719157
-0.13282126 -0.10089976 -0.11178075 0.25525898 -0.06582512 0.039435066 0.052871622 -0.064324595
0.09412163 -0.13584855 -0.22909835 -0.24296865 0.19141822 0.16581625 0.51855683 0.053777445
-0.13084388 -0.39202034 0.27154452 -0.71489865 0.04819434 0.012508829 0.12641998 -0.04961654
-0.33947596 0.059854764 -0.6895362 -0.13251558 -0.17863825 0.19845791 -0.17861295 0.16839555
-0.3278111 0.23411295 0.247664 -0.40137377 -0.13447517 -0.23202705 -0.05724829 0.13197143
-0.37958315 0.20123509 0.2366114 -0.20334713 0.09530373 -0.43560487 -0.09260518 -0.29023126
-0.084213234 0.15023091 -0.31240594 0.10589223 0.09027725 -0.018260714 -0.24551101 -0.13005616
00000000: f7ec 01bf 3106 863e 3d59 62bd cec3 22bf
00000010: e63f 2c3d baad e1be 8b44 243e 6568 8b3b
00000020: dc58 3cbf 9f41 893c 00cc 823c c8c9 7a3d
00000030: 4e19 07bf 37da 23bf 8ec6 81be 8d81 7abe
00000040: ce13 2d3e 87cf 3f3d dfc9 49bf 9846 a7bd
00000050: 901d e03e 798f 0bbe 8e23 2ebf b91b 82be
00000060: 1df6 13bf aa12 d2ba 7c77 6b3e e392 34bf
00000070: 9a5a 1bbf 97a3 203d 7bba 23be 483b 3a3e
00000080: 9735 ffbd e355 00bf 131b 88be d122 b9bd
00000090: 95a8 97bd 75bb 293d b662 9c3e 5652 1d3c
000000a0: 49d2 e8be 7a2b 67be a05b 113e a21c 70be
000000b0: b6bf 9ebe 7aa6 cabe 050d b23d 299d 773e
000000c0: 1737 e7bd a5e3 babe 1bb2 ba3d 5271 5e3e
000000d0: c7ea a23c 8128 03be fc70 873e ed9d 08bf
000000e0: 9516 b0be e9f7 203d a037 89be 0c33 75be
000000f0: 322f 793d 5fae f13b 59f9 5cbe 258a 25be
00000100: 9165 b93e 994b 4bbe 6433 5d3e 17ca fbbd
00000110: 41d4 c0bb 7e76 9a3d 75a5 b93b 1fc5 813e
00000120: 9fc6 c43c 236a 1a3d 4496 0b3e 1f3c 6abd
00000130: 4479 a23e fdaa 26be 5694 a53c 9518 0bbf
00000140: 14ed e73d 429d 843e 4b8d eabd 399a 08be
00000150: 4830 013c 893c 2a3e 71e9 67bd e027 c6be
00000160: d5f8 093e eae4 41bd 1153 ed3d c60b bc3d
00000170: 6ded 5cbc 4408 413e 0eca e3be 5813 873d
00000180: b7ec a43d 6598 183e 4466 97bd 3ba0 18bf
00000190: a35d 6e3e 9f63 7a3e 7ed3 d73d 70f3 d9bc
000001a0: 3395 08bf cf65 db3d 1f76 113d abcd 99bd
000001b0: dac3 4a3d 7bcc d2bd 29d3 efbc 5857 1b3e
000001c0: 806e 49be a121 fc3d 62d2 f23d 2d95 30bf
000001d0: a0d6 193e adfa b1bc 4564 053b 8154 5bbe
000001e0: 854b 983e a71d 68bd 5c6c 4c3e 2709 dcbd
000001f0: b078 49be 66f2 39bd 3478 cd3d 481a 03bf
00000200: e42e 113e 4f18 ebbe 9dbe 7abe e51e b03e
00000210: 14c2 68be 74b1 58bd 340f 4b3d da1b adbe
00000220: bf6e d7bc c81d f5bc c4ee f93a 2016 853e
00000230: 193b 663e a367 843e 2b9e 4b3e 3953 61be
00000240: 3a05 d5bd e8e6 39be 8223 a83d 6800 43bd
00000250: 3c32 f2bc a2d8 90bc 1f35 1dbd 8ca0 96bd
00000260: 852a 703d f46c 0c3f b72f 2ebf 686b 0bbf
00000270: 6b2b d0be ded8 fcbf e22a 5b3d 8855 853c
00000280: dbdf b7bc b003 ab3d 28d3 93ba 896d c7bd
00000290: d41c 44bd acca e23d d309 6b3d 5581 663e
000002a0: c3ab f63c 3400 943d a464 ce3d 3243 833e
000002b0: 4f2c 123e a549 493e 7255 6e3e 75c3 3f3d
000002c0: ed43 a5bd 3932 4ebe de70 143e dcc7 ae3d
000002d0: 6756 5b3d fe07 433e 7b92 edbd a01e 1d3c
000002e0: 16df 05bb f6fd adbd d5a4 26be f1fd c43b
000002f0: afdf 233c cb7f 0a3f 0365 1abc 0aec a33d
00000300: ef20 0bbd 2d31 44be 82f9 9cbd 9095 0dbd
00000310: 0508 34be 88df d23c b52a 84be 63b9 163e
00000320: 4c02 08be 89a4 cebd 4eed e4bd 4eb1 823e
00000330: 52cf 86bd aa86 213d ea8f 583d 9dbc 83bd
00000340: d7c2 c03d e21b 0bbe c298 6abe c6cc 78be
00000350: 2303 443e bccb 293e 24c0 043f bd45 5c3d
00000360: f0fb 05be e4b6 c8be e207 8b3e 9903 37bf
00000370: 6e67 453d d5f1 4c3c 3d74 013e b73a 4bbd
00000380: cbcf adbe 452a 753d 7285 30bf 2ab2 07be
00000390: f2ec 36be 8d38 4b3e 50e6 36be e26f 2c3e
000003a0: dbd6 a7be 4ebb 6f3e a29b 7d3e dd80 cdbe
000003b0: dcb3 09be 8098 6dbe 2f7d 6abd 8523 073e
000003c0: b958 c2be 9210 4e3e 424a 723e 3b3a 50be
000003d0: 9a2e c33d 9a07 dfbe c9a7 bdbd 3199 94be
000003e0: fd77 acbd 22d6 193e acf3 9fbe 07de d83d
000003f0: 47e3 b83d 7e97 95bc 3d67 7bbe 712d 05be

fc1.bias f4 [128]
-0.09535331 -0.047083665 -0.06827589 -0.03661143 0.17402025 -0.20388447 0.011772737 0.114944056
-0.0120711755 0.1017926 -0.3013255 0.009860594 -0.051492404 -0.01358557 -0.16697359 0.07113361
-0.017305994 -0.121451035 -0.12356546 -0.03722313 -0.08597825 0.12506956 0.27015752 0.015983371
0.044631902 0.11574195 0.14570999 -0.10749652 -0.12033748 -0.034303766 0.089928314 0.07150886
-0.14986335 0.050341096 -0.056043845 -0.27619705 -0.026668653 0.12254108 -0.07203042 -0.09661636
0.0010788023 0.17172083 0.10372849 0.05784707 0.13871421 -0.02042738 -0.041911215 -0.15663853
-0.16228867 -0.010205364 0.0038001111 0.037467 0.1070021 -0.030262066 -0.044170454 0.03948919
0.021248797 0.017341664 0.15123312 -0.13576704 -0.044911224 0.103218675 0.12336721 -0.113175966
0.060598243 0.024648312 0.161514 -0.13350956 -0.2773476 -0.1530063 0.006478607 -0.03686951
0.1548459 -0.2469095 -0.24504864 -0.058641296 0.15067174 -0.12465073 0.20793575 -0.044066966
-0.052634954 0.0053139967 0.0035583405 0.0073616845 -0.043011717 0.15232551 0.15679833 -0.07531473
-0.092309974 0.07446196 0.043035388 -0.104076505 -0.30955404 -0.2587055 -0.051813778 0.23885109
-0.13284989 -0.124628425 -0.10533767 -0.06765146 -0.09046614 -0.15388708 0.20412321 0.18706374
-0.25020367 -0.22520295 -0.037006516 0.12296923 -0.08772307 -0.16642593 0.060696363 -0.081131674
-0.13995999 -0.11272948 0.06320467 0.13577831 0.19678053 0.13928263 -0.105029754 -0.00039585936
-0.010447598 -0.017040746 -0.11486109 -0.043593504 -0.03921688 0.0035620623 0.09559421 -0.14598437
00000000: 9948 c3bd cdda 40bd 3bd4 8bbd def5 15bd
00000010: 5d32 323e 17c7 50be 70e2 403c ca67 eb3d
00000020: 2ec6 45bc a378 d03d 5647 9abe 548e 213c
00000030: b3e9 52bd 0396 5ebc 20fb 2abe 80ae 913d
00000040: 4dc5 8dbc 52bb f8bd e30f fdbd 4877 18bd
00000050: 5d15 b0bd 3c12 003e 1652 8a3e 8fef 823c
00000060: f1cf 363d 1e0a ed3d 0035 153e 2327 dcbd
00000070: 7f73 f6bd 1b82 0cbd 562c b83d 3d73 923d
00000080: c775 19be 7732 4e3d 3b8e 65bd b369 8dbe
00000090: 3878 dabc d1f6 fa3d af84 93bd ccde c5bd
000000a0: 9966 8d3a 96d7 2f3e 9a6f d43d 0df1 6c3d
000000b0: 190b 0e3e 5257 a7bc 18ab 2bbd da65 20be
000000c0: 002f 26be 6634 27bc 490b 793b ff76 193d
000000d0: eb23 db3d 27e8 f7bc 14ec 34bd 6bbf 213d
000000e0: f511 ae3c 1b10 8e3c dbdc 1a3e 8406 0bbe
000000f0: d5f4 37bd 5064 d33d f3a7 fc3d cdc8 e7bd
00000100: dd35 783d 42eb c93c ed63 253e bbb6 08be
00000110: 8100 8ebe afad 1cbe 7f4a d43b 7c04 17bd
00000120: ec8f 1e3e d8d5 7cbe 08ee 7abe db31 70bd
00000130: b149 1a3e e248 ffbd 1ced 543e 907f 34bd
00000140: c097 57bd 0921 ae3b 0c33 693b 493a f13b
00000150: 0e2d 30bd 38fb 1b3e be8f 203e 9c3e 9abd
00000160: 030d bdbd 837f 983d e045 303d 1026 d5bd
00000170: de7d 9ebe 0c75 84be af3a 54bd 6195 743e
00000180: cd09 08be 303d ffbd 47bb d7bd d98c 8abd
00000190: 5046 b9bd 9394 1dbe ad05 513e a38d 3f3e
000001a0: b21a 80be 9a9b 66be 2594 17bd 4bd7 fb3d
000001b0: 27a8 b3bd 8f6b 2abe c09c 783d 5d28 a6bd
000001c0: ac51 0fbe b7de e6bd 7371 813d 7809 0b3e
000001d0: d680 493e 1ba0 0e3e d719 d7bd 588b cfb9
000001e0: 672c 2bbc 0999 8bbc 4b3c ebbd 1a8f 32bd
000001f0: e1a1 20bd 7d71 693b e6c6 c33d ed7c 15be

fc2.weight f4 [128, 128]
-0.06213123 0.020404356 -0.043908317 0.06851223 0.4525136 0.022639783 -0.023218289 -0.011449212
0.22759907 0.14852746 -0.06259923 -0.018054029 -0.06536157 -0.002370808 -0.10154778 -0.12419338
0.10283196 -0.07093635 -0.043549366 0.058332745 0.027203837 0.18266185 0.0691111 0.05576737
-0.00408683 0.034202717 0.028570516 -0.15917468 -0.08034478 0.017839042 -0.03717197 -0.010464154
0.01688316 -0.0036126934 -0.17550817 -0.086733155 0.08797566 -0.00034625523 0.16281617 -0.0195369
-0.13513677 -0.018114863 -0.10619884 0.03122978 -0.035591062 0.109368205 -0.14256471 -0.059333723
-0.0014196426 -0.0032220874 -0.0739966 -0.09032258 0.027137445 -0.11611747 -0.114245966 0.16326788
-0.048969343 0.26984853 0.04964939 0.091081925 -0.33086044 0.048850186 0.050331827 -0.11691101
0.043720916 -0.0074740294 -0.19996983 -0.22861427 -0.13123438 -0.08638218 0.14456497 -0.063622825
-0.009534028 0.1751825 -0.035310123 0.0315903 -0.15816234 0.042331804 0.0014537538 0.21282789
-0.13472557 -0.034840174 -0.55896693 -0.028451156 -0.064588815 0.031327184 -0.08654075 -0.036344234
0.028064486 0.047644738 -0.119708866 -0.28828007 -0.20825459 -0.14639041 0.11465557 0.10908372
-0.099368565 0.024098575 -0.0976344 -0.10137487 0.069558196 0.010589488 -0.061661206 -0.22059584
0.049192905 0.095019676 -0.0225949 -0.28722125 0.21617986 -0.03891328 0.00843438 0.04111477
-0.06318065 -0.14778583 0.08674313 -0.36826584 0.2796058 0.05994926 -0.07102427 0.31372264
0.08386914 0.038585227 0.039306946 -0.5614218 -0.16148897 -0.11468862 -0.0743959 -0.108623706
-0.07577473 0.002335099 -0.22207092 0.026270641 -0.19874154 -0.37095156 0.081696205 -0.44274795
-0.1039834 -0.25807428 -0.11682711 0.0674368 -0.21952416 -0.5960257 -0.39293596 -0.2655272
-0.20781311 -0.084769875 -0.20501558 -0.0034402781 -0.060950883 -0.023811784 0.008057835 -0.03429454
-0.055178396 0.01856079 -0.114205174 0.04643969 0.12581892 -0.10189563 -0.013600749 0.13540475
-0.27028984 0.15638131 -0.22076188 -0.1705864 -0.28152508 0.14880536 0.07724162 0.062283535
-0.20413983 0.09413139 -0.23065948 -0.31766513 -0.017469011 -0.066882715 -0.2408641 0.0675577
0.03166639 -0.17360651 -0.22332458 -0.37259734 0.32383713 0.1538711 -0.05528561 -0.18956363
0.0041511147 -0.20726132 -0.1267005 -0.23524211 0.005165242 -0.1790972 0.34273636 -0.37657306
-0.041967984 -0.21007383 -0.061148148 -0.43460953 0.35995674 -0.037646946 -0.13697548 -0.021735674
0.030382305 -0.2246584 0.34026492 -0.21727762 0.39547822 -0.053987276 -0.27864146 -0.13293454
-0.09981243 0.033701643 -0.41319904 -0.35920852 0.19277044 0.11380794 0.17469719 -0.1387799
0.3095384 -0.09119604 -0.17702691 -0.29878855 -0.018931806 -0.17133252 -0.29233134 -0.4181066
-0.076007344 -0.19084257 0.08571283 -0.11715019 -0.032543067 -0.2668985 0.35592481 -0.037247498
-0.4102079 -0.032514334 0.064981334 0.11807811 -0.0024838203 -0.4411027 -0.014395886 0.33162907
0.09302993 0.002814228 -0.16617492 0.120629646 -0.18483904 -0.019791551 0.05511479 -0.06981176
-0.25038585 0.13586429 0.0436134 -0.034086365 -0.13096929 0.08657744 0.06798955 -0.070416294
00000000: 517d 7ebd 0927 a73c 35d9 33bd 2450 8c3d
00000010: ddaf e73e 1177 b93c 4834 bebc 7a95 3bbc
00000020: bb0f 693e 9517 183e 0634 80bd 0be6 93bc
00000030: 49dc 85bd 8f5f 1bbb 48f8 cfbd 1959 febd
00000040: 9099 d23d 1447 91bd d260 32bd 51ee 6e3d
00000050: 95da de3c b50b 3b3e 1f8a 8d3d 536c 643d
00000060: d1ea 85bb 2618 0c3d b70c ea3c b0fe 22be
00000070: ce8b a4bd 2f23 923c a341 18bd d871 2bbc
00000080: 8e4e 8a3c f0c2 6cbb 6ab8 33be 27a1 b1bd
00000090: 952c b43d 9789 b5b9 48b9 263e d90b a0bc
000000a0: 4b61 0abe 9f65 94bc c77e d9bd 98d5 ff3c
000000b0: efc7 11bd 70fc df3d 7cfc 11be eb07 73bd
000000c0: 4d13 baba a829 53bb 888b 97bd 0bfb b8bd
000000d0: 594f de3c ffce edbd caf9 e9bd b22f 273e
000000e0: 1494 48bd 9629 8a3e 295d 4b3d 2989 ba3d
000000f0: 8a66 a9be 2217 483d bf28 4e3d 0a6f efbd
00000100: b414 333d b4e8 f4bb e4c4 4cbe dc19 6abe
00000110: 4e62 06be 24e9 b0bd d708 143e af4c 82bd
00000120: 9d34 1cbc 0b63 333e 59a1 10bd d564 013d
00000130: 4ff5 21be 1d64 2d3d e28b be3a 8eef 593e
00000140: 80f5 09be 92b4 0ebd 7518 0fbf 6612 e9bc
00000150: 2447 84bd ef50 003d 473c b1bd b1dd 14bd
00000160: 7ee7 e53c 2127 433d ec29 f5bd 7299 93be
00000170: b140 55be 5ee7 15be 8ad0 ea3d 4967 df3d
00000180: bf81 cbbd 606a c53c 8bf4 c7bd a19d cfbd
00000190: 8774 8e3d 887f 2d3c 7690 7cbd e0e3 61be
000001a0: 807e 493d ad99 c23d f118 b9bc aa0e 93be
000001b0: 415e 5d3e 8863 1fbd 5b30 0a3c f667 283d
000001c0: db64 81bd 2b55 17be 62a6 b13d 578d bcbe
000001d0: 7e28 8f3e 5b8d 753d 2c75 91bd 41a0 a03e
000001e0: 95c3 ab3d 8b0b 1e3d 5200 213d 57b9 0fbf
000001f0: 5d5d 25be dee1 eabd e15c 98bd 1b76 debd
00000200: c82f 9bbd 7608 193b 8f66 63be 8735 d73c
00000210: e782 4bbe 5ded bdbe 5750 a73d dcaf e2be
00000220: 40f5 d4bd 5022 84be 0d43 efbd 4e1c 8a3d
00000230: f1ca 60be 2495 18bf e72e c9be 2ef3 87be
00000240: f6cc 54be d49b adbd 9bef 51be 4a76 61bb
00000250: a2a7 79bd ee10 c3bc 0205 043c 6e78 0cbd
00000260: be02 62bd cc0c 983c 67e4 e9bd 8b37 3e3d
00000270: add6 003e a8ae d0bd add5 5ebc 8ba7 0a3e
00000280: 6e63 8abe 6c22 203e 670f 62be 34ae 2ebe
00000290: 0e24 90be 6f60 183e db30 9e3d 051d 7f3d
000002a0: 080a 51be f5c7 c03d 0032 6cbe 01a5 a2be
000002b0: 2c1b 8fbc cef9 88bd 14a5 76be b15b 8a3d
000002c0: 9eb4 013d e8c5 31be 33af 64be 14c5 bebe
000002d0: fbcd a53e 6390 1d3e 2a73 62bd f81c 42be
000002e0: 1306 883b 503c 54be c7bd 01be 4fe3 70be
000002f0: 3141 a93b 4265 37be 247b af3e 2fce c0be
00000300: 9fe6 2bbd 981d 57be 7b76 7abd 2485 debe
00000310: 404c b83e af33 1abd 4d43 0cbe 030f b2bc
00000320: 50e4 f83c da0c 66be 3437 ae3e 067e 5ebe
00000330: 1f7c ca3e c321 5dbd 18aa 8ebe fe1f 08be
00000340: 766a ccbd bc0a 0a3d d38e d3be 2eea b7be
00000350: 9d65 453e 2314 e93d d2e3 323e 511c 0ebe
00000360: d17b 9e3e fdc4 babd 8b46 35be d0fa 98be
00000370: e016 9bbc cb71 2fbe 74ac 95be 1112 d6be
00000380: bda9 9bbd 3c6c 43be 358a af3d 70ec efbd
00000390: e14b 05bd eca6 88be c73b b63e d590 18bd
000003a0: c506 d2be c02d 05bd ef14 853d f0d2 f13d
000003b0: 97c7 22bb 37d8 e1be b9dc 6bbc 49cb a93e
000003c0: 7a86 be3d e96e 383b c229 2abe ad0c f73d
000003d0: 7246 3dbe e421 a2bc 0cc0 613d 78f9 8ebd
000003e0: 9332 80be 0220 0b3e f7a3 323d 259e 0bbd
000003f0: d01c 06be 834f b13d 1b3e 8b3d 6b36 90bd

fc2.bias f4 [128]
0.4138101 -0.15551543 -0.16569981 0.06264557 -0.17963776 0.21884882 0.039243236 -0.060773894
-0.034760784 0.5660624 0.14099126 -0.019049978 -0.08721201 -0.026000012 -0.026906919 -0.20258082
-0.16590232 0.011640569 -0.1469432 -0.14306255 -0.107139885 -0.06671163 -0.13918121 -0.01691431
-0.038330182 -0.055775594 -0.11283028 0.025999118 -0.15234274 -0.08584722 -0.16108856 0.030195123
0.08919483 0.018375924 0.02152194 -0.10554359 0.29849303 -0.11557427 0.035514697 -0.036469124
-0.11520857 0.066696405 0.060557473 -0.0539131 -0.06800562 -0.030018741 -0.13975832 0.40048805
0.3979668 -0.14197817 0.2476715 -0.17368037 -0.14640057 -0.1572443 0.13790737 0.1547987
0.032984518 -0.035649396 0.06373591 0.14500253 -0.047893662 -0.11690348 -0.092526674 -0.012276815
0.07098657 -0.12423368 -0.081010625 0.012791166 0.14876471 0.028163016 0.10562765 -0.039862685
0.03750829 0.15976585 -0.04369249 0.1028554 0.037572965 -0.09669393 -0.059373714 -0.112648316
-0.15831737 -0.13644032 0.73906785 -0.033354115 -0.028871685 -0.058674812 -0.1408825 0.109880246
0.1437023 -0.08258901 -0.09634935 -0.0970477 -0.049388926 0.15426654 -0.084922306 -0.073864855
0.026639642 -0.022184465 -0.029943014 -0.06958933 0.15503803 -0.020620918 -0.1865734 -0.114439756
0.013671111 -0.022003971 -0.10127323 0.56162137 -0.017219217 -0.08366694 0.027608987 -0.05159242
-0.014817951 -0.06467622 -0.04935065 -0.025140842 -0.09281764 -0.084473796 -0.12845357 -0.061025254
0.49098125 -0.060390227 -0.0071170507 -0.11531741 -0.062798835 -0.3112979 -0.016220532 -0.09203451
00000000: ebde d33e 703f 1fbe 36ad 29be 524c 803d
00000010: f6f2 37be e819 603e 84bd 203d 0cee 78bd
00000020: 5361 0ebd 77e9 103f 0360 103e b30e 9cbc
00000030: 369c b2bd fafd d4bc e66b dcbc 5971 4fbe
00000040: 4ce2 29be 16b8 3e3c 4778 16be fd7e 12be
00000050: 286c dbbd 1ba0 88bd 8585 0ebe e18f 8abc
00000060: 1c00 1dbd f374 64bd 9013 e7bd 1afc d43c
00000070: bcff 1bbe abd0 afbd 66f4 24be c35b f73c
00000080: c7ab b63d 1b89 963c c84e b03c 3d27 d8bd
00000090: 14d4 983e 34b2 ecbd dc77 113d a660 15bd
000000a0: 79f2 ebbd 2098 883d 1d0b 783d fcd3 5cbd
000000b0: 8846 8bbd dde9 f5bc ce1c 0fbe c50c cd3e
000000c0: 4ec2 cb3e ba62 11be 999d 7d3e 44d9 31be
000000d0: 08ea 15be a604 21be 9737 0d3e 8d83 1e3e
000000e0: c61a 073d 1a05 12bd f987 823d 8b7b 143e
000000f0: 252c 44bd 176b efbd a07e bdbd b224 49bc
00000100: 6861 913d 3a6e febd e6e8 a5bd 0a92 513c
00000110: c755 183e 20b6 e63c 4f53 d83d 0e47 23bd
00000120: 4ba2 193d a999 233e e5f6 32bd daa5 d23d
00000130: 1ce6 193d 7807 c6bd da31 73bd 29b4 e6bd
00000140: f31d 22be 03b7 0bbe 8d33 3d3f 539e 08bd
00000150: 5084 ecbc 0055 70bd 8143 10be e508 e13d
00000160: b226 133e 6d24 a9bd cf52 c5bd f2c0 c6bd
00000170: 0b4c 4abd 0cf8 1d3e bfeb adbd 7546 97bd
00000180: 613b da3c 32bc b5bc 0d4b f5bc da84 8ebd
00000190: 4ac2 1e3e 33ed a8bc 190d 3fbe 645f eabd
000001a0: ccfc 5f3c ac41 b4bc 5768 cfbd 6bc6 0f3f
000001b0: 510f 8dbc 9359 abbd 3e2c e23c 9352 53bd
000001c0: fec6 72bc f774 84bd e823 4abd 2bf4 cdbc
000001d0: 2d17 bebd 9900 adbd 5589 03be 9ef5 79bd
000001e0: e561 fb3e be5b 77bd 2636 e9bb 892b ecbd
000001f0: ad9c 80bd 7062 9fbe ece0 84bc 977c bcbd

fc3.weight f4 [4, 128]
0.17097618 0.2313274 0.04178102 0.14094593 -0.006789014 0.14786384 0.13641644 0.08535652
0.031800862 0.108095996 0.15587014 -0.2525439 -0.2960457 -0.2766034 -0.37636995 -0.13619931
0.028638091 0.22351913 -0.08555739 -0.031962056 0.18329506 0.00065495167 -0.17495461 -0.090067245
-0.04214726 0.05189669 -0.35221276 0.01926687 -0.1150617 0.18621874 -0.45533916 0.03615051
0.06794394 0.012855673 -0.33893952 -0.0056338315 0.12004503 -0.17715365 0.09440041 0.0034133112
0.08865646 0.11559993 0.22506124 0.24951133 0.12412274 0.07040026 -0.028554935 -0.0031502577
0.09355066 -0.10297303 0.08908677 -0.048923653 -0.2605173 0.03512518 0.18437555 0.12577876
0.08884758 0.12013127 0.24769552 0.031415183 0.040863995 0.19447577 0.05312694 0.39102212
0.028745264 -0.18381345 -0.0070203617 0.22448602 0.06524358 0.026762262 0.15101539 -0.052187044
0.096234776 0.2567668 -0.050799455 0.010543938 0.023545343 0.02988631 -0.13498248 -0.12838672
0.10579897 -0.2124611 0.20125233 0.14781459 -0.15998913 0.1774278 -0.0034048269 0.07462109
0.17821015 -0.051704302 0.080156505 -0.3128452 0.098664194 0.11416871 0.18131419 -0.059291564
0.07304296 0.056229677 0.053806134 0.4498738 0.050477237 -0.08560982 0.03289489 -0.15654401
0.12348452 0.05038143 0.04047641 0.15266556 0.07949163 -0.20820436 -0.096337475 -0.25019217
-0.11443839 -0.09770493 0.4551025 0.004509906 -0.052516896 0.15584058 -0.08527713 0.19272903
0.06792436 0.053391382 0.040506627 0.27220416 0.23597927 -0.1439538 0.08031906 -0.032469306
0.07345819 0.040223837 -0.07426426 -0.111342855 0.021236533 0.16401172 0.16268446 0.3524627
-0.0029220495 0.1280024 0.15083295 -0.062319804 -0.325594 -0.21889056 -0.14256413 -0.08565568
-0.17021748 0.26376477 0.0761949 -0.08714788 -0.533935 0.016507786 -0.1297995 0.041229248
0.03682072 -0.11576351 0.32394 0.3369414 -0.16672458 0.45104256 -0.078110345 0.27258503
0.09694742 0.034393042 -0.40531236 -0.040717002 0.14104731 -0.1840695 0.44261768 0.07145182
0.09956498 -0.1308295 0.3537249 0.3844837 0.12974152 0.07569855 -0.035120584 0.10913255
0.043572146 0.42092544 0.13647547 -0.14426227 -0.27921847 -0.3652692 0.17684083 0.074687384
0.08478686 -0.112222776 0.23394388 0.16418004 0.36577183 -0.03836112 0.28497642 0.18111815
-0.51767 -0.05723105 0.023321427 0.26075232 0.08510333 0.10952874 0.07886365 0.11456794
0.1470395 0.19042626 0.29308343 0.020976061 0.1768031 0.053413004 -0.07629463 -0.0062116026
0.082622595 -0.19654371 0.1911748 0.034348674 -0.18425302 0.2584687 0.032072254 0.08571525
0.13043307 -0.01117998 -0.33733678 0.22994806 0.08150782 0.029836295 0.12838022 0.008714004
-0.007357602 0.059024435 0.1572702 -0.0446642 0.056713514 0.28428254 -0.048956692 -0.3705241
-0.20402907 0.17347114 0.09971519 0.14982185 0.07305981 -0.29549962 -0.058605596 0.02420958
-0.35688877 0.019533252 -0.25318456 0.03289896 -0.11653322 0.077884786 -0.13713688 0.3211834
0.07544163 0.06923929 -0.4911883 0.2755001 0.18244179 -0.09604993 0.15363531 -0.034701996
00000000: 6114 2f3e 17e1 6c3e 9322 2b3d 2154 103e
00000010: 6176 debb 9e69 173e c0b0 0b3e 66cf ae3d
00000020: 9f41 023d 6f61 dd3d 6c9c 1f3e 6f4d 81be
00000030: 4d93 97be f69e 8dbe 90b3 c0be d577 0bbe
00000040: 6e9a ea3c 33e2 643e b638 afbd a5ea 02bd
00000050: b3b1 3b3e 10b1 2b3a 4d27 33be 2d75 b8bd
00000060: 9ba2 2cbd a091 543d 3b55 b4be 8ed5 9d3c
00000070: 78a5 ebbd 20b0 3e3e 3722 e9be 8f12 143d
00000080: 3126 8b3d 9aa0 523c 7b89 adbe 019c b8bb
00000090: 2bda f53d c467 35be 0155 c13d dcb1 5f3b
000000a0: 8591 b53d a8bf ec3d 7476 663e e67f 7f3e
000000b0: 1034 fe3d 032e 903d 0aec e9bc 8e74 4ebb
000000c0: 7d97 bf3d 86e3 d2bd 2073 b63d 2b64 48bd
000000d0: 8662 85be 6cdf 0f3d f2cc 3c3e 26cc 003e
000000e0: b8f5 b53d 6207 f63d e5a3 7d3e 35ad 003d
000000f0: 0161 273d a824 473e a29b 593d 0d34 c83e
00000100: 307b eb3c 9839 3cbe 100b e6bb aadf 653e
00000110: 6d9e 853d 883c db3c c7a3 1a3e 15c2 55bd
00000120: bd16 c53d f076 833e 1713 50bd 7bc0 2c3c
00000130: 2ae2 c03c 23d4 f43c d938 0abe cf77 03be
00000140: 21ad d83d 678f 59be 1715 4e3e b55c 173e
00000150: 31d4 23be a2af 353e 8423 5fbb f1d2 983d
00000160: b97c 363e e4c7 53bd 1829 a43d 3f2d a0be
00000170: 7410 ca3d 49d1 e93d 6daa 393e b6db 72bd
00000180: 8c97 953d 1751 663d d263 5c3d dc55 e63e
00000190: 38c1 4e3d 3454 afbd cbbc 063d 134d 20be
000001a0: 74e5 fc3d c25c 4e3d 98ca 253d 5c54 1c3e
000001b0: 82cc a23d 8633 55be 954c c5bd 3019 80be
000001c0: ad5e eabd 8619 c8bd 3203 e93e d5c7 933b
000001d0: f51b 57bd ac94 1f3e c7a5 aebd c25a 453e
000001e0: ed1b 8b3d ecb0 5a3d 47ea 253d 585e 8b3e
000001f0: 8da4 713e a068 13be 527e a43d 89fe 04bd
00000200: 3f71 963d c0c1 243d dc17 98bd b907 e4bd
00000210: 3df8 ad3c b0f2 273e c196 263e fe75 b43e
00000220: db7f 3fbb 1013 033e f473 1a3e 0d43 7fbd
00000230: 42b4 a6be d924 60be 55fc 11be 3f6c afbd
00000240: 7e4d 2ebe 2d0c 873e 120c 9c3d 967a b2bd
00000250: f7af 08bf 563b 873c 29ea 04be 00e0 283d
00000260: 53d1 163d 6b15 edbd 77db a53e 9583 ac3e
00000270: d9b9 2abe 0def e63e 51f8 9fbd 4490 8b3e
00000280: 5e8c c63d b8df 0c3d 1a85 cfbe dfc6 26bd
00000290: b56e 103e b77c 3cbe c99e e23e 5555 923d
000002a0: b9e8 cb3d 2bf8 05be 6e1b b53e 0cdb c43e
000002b0: f6da 043e d707 9b3d 9ada 0fbd e380 df3d
000002c0: b578 323d 8a83 d73e 3ac0 0b3e 7db9 13be
000002d0: b9f5 8ebe 9104 bbbe c315 353e b3f5 983d
000002e0: bca4 ad3d 0ed5 e5bd fc8e 6f3e d01e 283e
000002f0: 7246 bb3e 8d20 1dbd 6ee8 913e 0977 393e
00000300: 0586 04bf 1b6b 6abd 940c bf3c 5481 853e
00000310: a84a ae3d 9b50 e03d 4483 a13d 99a2 ea3d
00000320: 8691 163e 1aff 423e 080f 963e fdd5 ab3c
00000330: df0b 353e 98c7 5a3d 5c40 9cbd b38a cbbb
00000340: 0936 a93d c142 49be 54c3 433e 32b1 0c3d
00000350: d3ac 3cbe 0256 843e 325e 033d 7a8b af3d
00000360: 3f90 053e 3c2c 37bc 68b7 acbe 8177 6b3e
00000370: 92ed a63d 3f6b f43c 1b76 033e 2fc5 0e3c
00000380: 0a18 f1bb 9bc3 713d 700b 213e cff1 36bd
00000390: 6e4c 683d 7b8d 913e d086 48bd 56b5 bdbe
000003a0: ffec 50be 6ba2 313e 7a37 cc3d e66a 193e
000003b0: 62a0 953d ba4b 97be 6c0c 70bd 2b53 c63c
000003c0: 20ba b6be 3304 a03c 68a1 81be 0fc1 063d
000003d0: f8a8 eebd 0f82 9f3d 9c6d 0cbe 2772 a43e
000003e0: 2481 9a3d 54cd 8d3d 087d fbbe 590e 8d3e
000003f0: 05d2 3a3e d3b5 c4bd 9352 1d3e ae23 0ebd

fc3.bias f4 [4]
0.4449191 0.4234557 0.44945076 0.39357734
00000000: 70cc e33e 2fcf d83e 691e e63e f882 c93e
